best_model_24_bit.pth (torch, 151413 bytes, 14 tensors)

weight f4 [128, 200]
-0.6106613 1.4367745 0.87477005 0.6095433 0.024508696 1.2425798 0.028721485 -0.047879916
-1.2811462 1.69074 0.97921777 -0.06568103 0.6797666 1.6028357 -0.17962864 0.009597662
0.23032895 0.8707114 0.00052837725 -0.58356297 -0.48788902 -0.9438776 0.48891404 -0.16429172
0.6921114 -0.7231935 0.28370908 1.5087457 0.48146087 0.47416878 -0.1364609 0.3185973
-1.8174546 2.901139 -0.19642958 0.15423094 2.530231 -1.2125945 1.8614401 -0.89031905
-0.7348439 -0.5234723 0.6112861 -0.21419643 1.0206965 0.6173777 0.929886 1.0549372
0.46169013 -0.49725822 0.17000787 0.05447541 0.88881236 0.44828698 0.29699516 -0.688096
0.48581994 0.68611574 -0.9938798 1.7947557 -0.3479831 1.532428 0.3732558 0.17974253
1.6968694 1.2179304 1.4795616 1.6961694 0.9997794 -0.95452666 0.2849607 0.33406472
0.8412178 -0.052404687 -0.36775416 1.4583871 0.13705657 1.144353 0.5642119 -0.6213745
0.4825818 1.0239186 0.63017946 0.43876398 0.75312155 -0.104132764 1.1433998 -0.13827261
-0.5579756 0.5340211 1.399972 0.6968326 1.6979533 0.38092837 0.45295304 1.2592775
-0.24143629 1.3217385 -0.55985475 0.3877647 0.14922917 0.6047247 -0.17152558 1.0839651
0.5058135 -0.92614084 1.1877283 0.46602595 -1.38813 0.4533529 0.9060038 -0.008031812
0.7210674 0.9704096 0.024766855 -0.21325737 0.09501148 -0.48608312 -1.2015536 -0.65283203
-1.5256082 0.67268765 -0.08250384 -1.9682549 -0.3473781 2.0129137 0.70428634 0.71814924
-1.0730811 -0.8350342 -1.2070749 -0.6312242 0.24141738 -1.1020222 0.32281682 -0.21731551
-0.30014557 -0.22876634 -0.41089004 -1.2541733 -0.38717407 1.0061909 -0.5670929 -0.26836708
-0.3946118 -0.32867056 -0.85865605 -0.07725709 -0.65968907 -0.009032152 0.1756515 -0.17851853
0.17026182 0.14272574 -0.89335465 -0.7499557 -0.71937007 0.053232644 0.1095169 -0.6655542
-0.18738745 -0.6154682 -0.28759632 0.14072262 -0.10124684 -0.8625848 -0.7776421 -0.016698204
-0.08181802 0.70423657 -0.86301535 0.762566 -1.2807785 1.7251534 0.17481585 0.17925262
-1.0963801 -0.38941547 0.1814348 0.20347162 0.0678804 -0.7536282 0.06144387 0.22423181
-0.79092795 -1.0922827 0.6809487 -0.28738722 -0.61399734 -0.6766249 -0.7789901 -0.8418091
-0.89619017 -1.3480424 -0.5183055 0.09890076 -0.115549326 -1.4276285 0.44372708 0.11502818
1.5401899 -0.86043274 0.42225742 0.70308125 2.543137 0.115734495 0.08398611 -0.3238004
-0.5272435 0.94303143 0.5104234 -0.97005403 0.82738096 1.1450447 -0.6409918 -0.77836055
-0.6966821 1.2106395 -0.017911375 -0.14140233 0.67549485 -0.4002788 -1.0800846 -1.0056449
0.41535115 0.07669993 0.6340115 0.80530715 0.68170565 0.05082148 -0.3859899 0.7376845
-0.1001058 0.9730372 0.34597456 -0.00596881 -1.9121846 -0.49367023 -1.3012515 -0.3791223
-1.0271591 -0.8789717 0.6271029 0.3891526 0.23656207 -0.19957031 0.84968436 1.340511
-0.08347599 -0.84815913 -0.54630166 0.18077125 1.2847016 0.9074494 0.7530879 0.5125395
00000000: 4d54 1cbf 3ae8 b73f eef0 5f3f 080b 1c3f
00000010: 76c6 c83c db0c 9f3f 5249 eb3c bb1d 44bd
00000020: 99fc a3bf 2b6a d83f 04ae 7a3f c783 86bd
00000030: 2f05 2e3f b829 cd3f 92f0 37be 833f 1d3c
00000040: 5adb 6b3e f1e6 5e3f cc82 0a3a 6264 15bf
00000050: 97cc f9be f6a1 71bf f152 fa3e 173c 28be
00000060: 362e 313f 3623 39bf 5142 913e 941e c13f
00000070: 0a82 f63e 40c6 f23e 68bc 0bbe 2f1f a33e
00000080: 5aa2 e8bf 43ac 3940 d624 49be b7ee 1d3e
00000090: 4eef 2140 4c36 9bbf ab43 ee3f f3eb 63bf
000000a0: bb1e 3cbf 4802 06bf 3f7d 1c3f 4f56 5bbe
000000b0: 2fa6 823f 770c 1e3f 020d 6e3f 2f08 873f
000000c0: a662 ec3e a198 febe 8b16 2e3e 9c21 5f3d
000000d0: 3589 633f df85 e53e c00f 983e 0f27 30bf
000000e0: 64bd f83e 48a5 2f3f e86e 7ebf 8eba e53f
000000f0: d72a b2be 9a26 c43f 621b bf3e 6d0e 383e
00000100: 0433 d93f 25e5 9b3f 4662 bd3f 141c d93f
00000110: 8bf1 7f3f dc5b 74bf 5ee6 913e 880a ab3e
00000120: 0d5a 573f 4ca6 56bd 464a bcbe 6eac ba3f
00000130: 8f58 0c3e 297a 923f 3170 103f 6612 1fbf
00000140: f614 f73e c40f 833f 7153 213f aca5 e03e
00000150: 93cc 403f 8f43 d5bd ed5a 923f 5697 0dbe
00000160: 7dd7 0ebf 9bb5 083f 4832 b33f 9f63 323f
00000170: 8956 d93f 0b09 c33e 76e9 e73e 0130 a13f
00000180: 133b 77be ba2e a93f a452 0fbf 1889 c63e
00000190: 88cf 183e 3dcf 1a3f 67a4 2fbe 5ebf 8a3f
000001a0: fe7c 013f 9117 6dbf 7b07 983f f49a ee3e
000001b0: 3eae b1bf df1d e83e ddef 673f dc97 03bc
000001c0: e097 383f c36c 783f dce3 ca3c 2460 5abe
000001d0: 6195 c23d e3df f8be 82cc 99bf 0020 27bf
000001e0: 2147 c3bf 4235 2c3f c6f7 a8bd c7ef fbbf
000001f0: 8bdb b1be 94d3 0040 1c4c 343f a1d8 373f
00000200: b95a 89bf cdc4 55bf 6e81 9abf e997 21bf
00000210: 1e36 773e 100f 8dbf 3f48 a53e f587 5ebe
00000220: aeac 99be b941 6abe 2e60 d2be c088 a0bf
00000230: ae3b c6be ddca 803f 002d 11bf 6967 89be
00000240: 8f0a cabe 8247 a8be e2d0 5bbf f738 9ebd
00000250: 62e1 28bf 97fb 13bc fddd 333e 90cd 36be
00000260: 1d59 2e3e b226 123e e4b2 64bf 19fd 3fbf
00000270: a328 38bf 790a 5a3d 654a e03d c361 2abf
00000280: 7fe2 3fbe 538f 1dbf d33f 93be 9719 103e
00000290: 815a cfbd 5cd2 5cbf 8d13 47bf acca 88bc
000002a0: 3590 a7bd d948 343f 93ee 5cbf 8637 433f
000002b0: 8df0 a3bf d4d1 dc3f ed02 333e 008e 373e
000002c0: 2f56 8cbf 7761 c7be 0bca 393e dd5a 503e
000002d0: e104 8b3d c7ed 40bf 91ac 7b3d 069d 653e
000002e0: 417a 4abf ebcf 8bbf a752 2e3f 6b24 93be
000002f0: ee2e 1dbf 4a37 2dbf e56b 47bf cd80 57bf
00000300: b86c 65bf a78c acbf abaf 04bf 7b8c ca3d
00000310: 20a5 ecbd 88bc b6bf 3230 e33e e593 eb3d
00000320: f124 c53f 5245 5cbf 2032 d83e 22fd 333f
00000330: c2c2 2240 3506 ed3d e900 ac3d 2bc9 a5be
00000340: 6ef9 06bf 826a 713f 1cab 023f 7655 78bf
00000350: 3dcf 533f d390 923f 0a18 24bf a342 47bf
00000360: c259 32bf 3cf6 9a3f e0ba 92bc c6cb 10be
00000370: 3bed 2c3f 58f1 ccbe 3640 8abf f9b8 80bf
00000380: e8a8 d43e da14 9d3d 944e 223f 9c28 4e3f
00000390: 4384 2e3f 2f2a 503d 78a0 c5be e4d8 3c3f
000003a0: 4504 cdbd f718 793f 9423 b13e 0296 c3bb
000003b0: 77c2 f4bf 58c2 fcbe 698f a6bf 511c c2be
000003c0: f379 83bf 4a04 61bf d189 203f 023f c73e
000003d0: 543d 723e 295c 4cbe ea84 593f dd95 ab3f
000003e0: 76f5 aabd f520 59bf 6dda 0bbf 191c 393e
000003f0: 1a71 a43f 9b4e 683f 5eca 403f ca35 033f

bias f4 [128]
-0.4340602 -0.15116473 -0.124018766 -0.1480631 0.19295664 0.27960667 0.5039245 0.2514667
0.4163602 0.29413083 -0.058565494 -0.017756265 1.3778708 -0.30057585 0.053489476 -0.20683244
-0.0295894 -1.211493 0.0041245436 -0.044778936 -0.11077275 -1.3391504 1.4720415 0.36372074
0.3459699 -0.06843114 -1.9633182 0.44119683 -0.48475793 0.075242 0.01859964 1.282249
0.364228 -1.2660036 -0.46734086 -0.10842505 0.38267165 -0.06566737 -0.24501112 0.14224984
0.2594658 0.18414573 1.2988665 0.24569052 0.25919047 0.47496432 -0.87993896 1.2861768
-0.64715624 -0.13916393 -0.5265639 0.1996311 0.21428807 0.5993623 -0.036207084 0.023181895
-0.12172048 0.15879764 0.090062395 -0.009462198 0.732169 -0.14616504 0.70809066 -0.3475284
-0.68992716 -0.074689455 0.27042553 -0.27700666 0.24156599 -0.5969921 0.2647367 0.015909726
0.14145578 -0.5269753 0.17779787 0.112456076 0.5601416 0.08203417 0.5550181 0.11679473
0.15404695 -0.7107901 -1.0174352 0.13840277 -0.40754524 1.0362101 0.4654649 0.048654817
-0.20203052 0.39807504 0.12771632 1.412675 0.83331186 -2.0431998 -0.62832266 -0.14687118
0.1774062 -0.84430665 0.69653934 0.11486767 -0.8328583 -0.07190221 -0.032543004 -0.12961301
1.0523654 0.61208934 0.03826796 -0.09574578 -0.487255 -0.48175406 -0.6044526 0.008382261
0.6156667 -1.1568788 0.6649028 -0.29646653 0.20525256 0.22840889 0.117941745 0.39700103
0.36402544 0.20170802 1.0898808 0.025482299 -0.24789576 0.14028041 0.8514195 0.15917529
00000000: 233d debe edca 1abe 8dfd fdbd da9d 17be
00000010: 6d96 453e 9b28 8f3e 3201 013f 3ec0 803e
00000020: 2a2d d53e 5198 963e 5fe2 6fbd 9675 91bc
00000030: 125e b03f 14e5 99be c817 5b3d e2cb 53be
00000040: 7865 f2bc 3412 9bbf 2e27 873b 1e6a 37bd
00000050: d3dc e2bd 4869 abbf db6b bc3f 9b39 ba3e
00000060: f722 b13e a025 8cbd 034e fbbf 8de4 e13e
00000070: 3132 f8be 7a18 9a3d 465e 983c bc20 a43f
00000080: 187c ba3e 680c a2bf 4d47 efbe f40d debd
00000090: 8aed c33e 9d7c 86bd 32e4 7abe f1a9 113e
000000a0: b4d8 843e b390 3c3e 4241 a63f 4c96 7b3e
000000b0: 9db4 843e 862e f33e ae43 61bf 71a1 a43f
000000c0: 08ac 25bf fd80 0ebe e4cc 06bf 186c 4c3e
000000d0: 556e 5b3e cf6f 193f e14d 14bd f5e7 bd3c
000000e0: 9648 f9bd d99b 223e a272 b83d 5607 1bbc
000000f0: 6d6f 3b3f 4aac 15be 6e45 353f 3eef b1be
00000100: 119f 30bf c9f6 98bd 3775 8a3e d1d3 8dbe
00000110: 135d 773e 79d4 18bf 928b 873e 1d55 823c
00000120: c9d9 103e dae7 06bf a510 363e 5f4f e63d
00000130: 7165 0f3f 8801 a83d ab15 0e3f 1332 ef3d
00000140: 7cbe 1d3e 57f6 35bf 513b 82bf 75b9 0d3e
00000150: c5a9 d0be 88a2 843f 6a51 ee3e 464a 473d
00000160: 17e1 4ebe 7ed0 cb3e 11c8 023e 89d2 b43f
00000170: ed53 553f c9c3 02c0 c1d9 20bf 6665 16be
00000180: f9a9 353e 7b24 58bf 6750 323f be3f eb3d
00000190: 3436 55bf 7741 93bd d04b 05bd 46b9 04be
000001a0: e9b3 863f e3b1 1c3f ddbe 1c3d 5d16 c4bd
000001b0: 7d79 f9be 78a8 f6be 68bd 1abf c055 093c
000001c0: 559c 1d3f 9b14 94bf 1237 2a3f 76ca 97be
000001d0: ba2d 523e 05e4 693e 718b f13d b843 cb3e
000001e0: 8b61 ba3e 8c8c 4e3e 3781 8b3f 41c0 d03c
000001f0: 63d8 7dbe aba5 0f3e a1f6 593f d9fe 223e

weight f4 [128]
0.17409231 1.6881738 1.1912215 0.7812133 2.4135025 -0.043768372 1.3018901 -0.006734492
1.086531 0.8395977 0.71598405 -0.052139908 1.0432501 -0.032447625 -0.061052237 0.92317224
0.088180915 0.27457765 0.9949876 0.018622676 0.010928647 0.8866126 1.027444 1.1235476
1.3665226 0.067892395 1.0380932 0.8870317 1.0068276 -0.07117593 0.8772291 2.0028682
0.13161404 0.9701078 0.013824925 0.8920018 0.12649527 -0.11039341 0.8811452 0.0066888584
0.992452 -0.0023112912 1.617852 1.5404693 -0.031580415 1.8748834 0.44547778 1.0922087
0.45252916 -0.09205877 2.4565485 0.048839748 1.6759821 0.82976025 0.0136275925 1.1055127
0.89826554 -0.0472095 1.3904784 -0.0596372 1.9028443 0.41752964 1.7977786 1.58251
0.27969983 -0.071377136 1.6500369 0.61275995 0.011064231 1.4213411 1.4958189 0.0074922964
0.03243146 0.8515084 -0.06294413 0.79079944 1.5584303 -0.091746695 1.9943252 1.1420343e-05
-0.036503322 0.35540536 0.7243209 0.41037086 2.0418332 1.1975365 1.4072791 0.0776039
-0.033125892 0.02307578 0.52516246 0.8075683 1.3648232 0.83290404 0.17536962 -0.014540592
0.0241848 1.4176203 0.63392746 0.085689284 1.0008479 0.009866819 -0.116577126 0.80850464
0.5595455 0.1521736 0.020847335 1.3762236 0.79870886 1.1563612 0.99022216 -0.014090672
0.51678735 1.5202788 0.65556914 1.419166 -0.0474186 0.63623804 0.011345655 2.1637256
0.99507403 0.009732916 1.7900038 0.041220874 2.3535662 1.2245741 1.3925425 0.02865522
00000000: 4145 323e 1416 d83f f279 983f 98fd 473f
00000010: d376 1a40 7746 33bd 56a4 a63f 03ad dcbb
00000020: 7313 8b3f e0ef 563f bb4a 373f a890 55bd
00000030: 3889 853f cde7 04bd e911 7abd 0455 6c3f
00000040: 3298 b43d 7195 8c3e 82b7 7e3f 958e 983c
00000050: 110e 333c 0bf9 623f 4983 833f 68d0 8f3f
00000060: 36ea ae3f 2b0b 8b3d 3de0 843f 8214 633f
00000070: badf 803f b0c4 91bd 1692 603f fe2e 0040
00000080: d5c5 063e fc58 783f f081 623c 3b5a 643f
00000090: fa87 013e f115 e2bd bb92 613f 362e db3b
000000a0: 5611 7e3f 0879 17bb c615 cf3f 192e c53f
000000b0: 775a 01bd 2efc ef3f aa15 e43e 7fcd 8b3f
000000c0: e7b1 e73e 4f89 bcbd 1738 1d40 300c 483d
000000d0: 9586 d63f 2b6b 543f 4446 5f3c 7181 8d3f
000000e0: bbf4 653f c05e 41bd 32fb b13f 2346 74bd
000000f0: 6790 f33f 72c6 d53e 9c1d e63f b08f ca3f
00000100: d134 8f3e 2d2e 92bd 6934 d33f d6dd 1c3f
00000110: c046 353c 81ee b53f fe76 bf3f f081 f53b
00000120: dad6 043d 74fc 593f dae8 80bd d571 4a3f
00000130: a57a c73f b1e5 bbbd 0c46 ff3f 009a 3f37
00000140: 8284 15bd b1f7 b53e 186d 393f 211c d23e
00000150: 65ad 0240 e048 993f b921 b43f cbee 9e3d
00000160: 04af 07bd 6b09 bd3c 0c71 063f ccbc 4e3f
00000170: 87b2 ae3f 3339 553f 1894 333e aa3b 6ebc
00000180: 341f c63c 9574 b53f 1249 223f dd7d af3d
00000190: c91b 803f 70a8 213c fdbf eebd 29fa 4e3f
000001a0: 603e 0f3f 65d3 1b3e 08c8 aa3c 1828 b03f
000001b0: 2f78 4c3f a503 943f 337f 7d3f 90dc 66bc
000001c0: 2d4c 043f 7f98 c23f 61d3 273f 3ba7 b53f
000001d0: 023a 42bd 7fe0 223f 20e3 393c 7b7a 0a40
000001e0: 2cbd 7e3f cf76 1f3c d81e e53f 38d7 283d
000001f0: d4a0 1640 d8be 9c3f d53e b23f 5abe ea3c

bias f4 [128]
-0.51691973 -0.23510145 -0.7581951 0.16464056 0.4693562 -0.036171928 -1.0178992 0.33097172
-0.14622203 -0.3523438 0.3503941 0.550898 0.35380718 -0.032798365 0.18545015 0.023870667
-0.36568794 0.21915935 0.43910143 0.12947404 0.14674267 0.32183403 -0.17456841 0.76494503
0.012766783 -0.12775424 -0.07428015 0.24205276 0.50343275 -0.10746221 -0.3756621 -0.4236575
-0.6972895 -0.105622105 -0.617935 0.46736747 0.75107986 -0.18556468 0.84653205 -0.026063036
-0.4354613 -0.0127263665 0.57215416 -0.38421926 -0.05026629 -0.41523534 0.41817385 -0.039682962
-0.523108 0.011000217 -0.47594026 -0.07409027 -0.6704216 -0.6435518 0.111421384 0.338327
0.07186911 -0.13773705 0.84717953 0.08534103 -0.4921733 -0.5695324 0.4636214 -0.22526713
-0.25788206 0.0029911587 -0.32245994 -0.65653425 0.5145087 -0.08272765 -0.3882619 0.07710422
-0.42546877 -0.34103948 -0.40861017 0.5693642 -0.006298133 0.42568386 -0.72507423 -0.0322957
0.124571 -0.10917954 -0.20566064 0.88741195 0.7775152 0.16116408 -0.34867236 -0.36273742
0.016009446 -0.0165339 -0.31129965 -0.84480816 -0.6138197 0.61949366 0.48828128 -0.4617699
0.21101047 -0.6034534 -0.4257194 0.289655 -0.8479915 -0.1404653 0.15584652 0.017687697
-1.0943345 0.12842801 0.4054662 -0.14290626 0.3522988 -0.2591651 0.06902411 0.054786
-0.07751452 -0.58347374 0.18590572 0.30222157 0.0061623827 -0.38473117 -0.010185789 0.9034744
0.38904792 0.3058331 -0.43050075 0.09557162 -0.87737495 0.20729142 0.12251885 -0.31282473
00000000: da54 04bf 6fbe 70be 1319 42bf 8997 283e
00000010: 754f f03e 0429 14bd 854a 82bf 2075 a93e
00000020: 3abb 15be 6866 b4be db66 b33e a707 0d3f
00000030: 3726 b53e 9457 06bd a5e6 3d3e 6b8c c33c
00000040: 733b bbbe 4f6b 603e e7d1 e03e d894 043e
00000050: b643 163e 6ec7 a43e 10c2 32be 70d3 433f
00000060: c52b 513c 02d2 02be 3120 98bd aedc 773e
00000070: f8e0 003f 2615 dcbd c856 c0be a3e9 d8be
00000080: 9181 32bf 6750 d8bd fd30 1ebf ca4a ef3e
00000090: c546 403f ab04 3ebe 53b6 583f 2682 d5bc
000000a0: c9f4 debe 4082 50bc b278 123f 63b8 c4be
000000b0: 06e4 4dbd ba99 d4be e21a d63e 9a8a 22bd
000000c0: 68ea 05bf 413a 343c 71ae f3be a4bc 97bd
000000d0: c0a0 2bbf d0bf 24bf e530 e43d 3239 ad3e
000000e0: 1d30 933d f10a 0dbe c2e0 583f 47c7 ae3d
000000f0: 24fe fbbe e0cc 11bf c95f ed3e 6dac 66be
00000100: 1e09 84be 5107 443b 7819 a5be a112 28bf
00000110: d8b6 033f 1d6d a9bd 44ca c6be d1e8 9d3d
00000120: 0bd7 d9be ba9c aebe 5a35 d1be dac1 113f
00000130: 9260 cebb 3cf3 d93e 779e 39bf 7f48 04bd
00000140: 151f ff3d 8699 dfbd b498 52be 6e2d 633f
00000150: 3c0b 473f 3208 253e 2f85 b2be b8b8 b9be
00000160: 3e26 833c 1a72 87bc ab62 9fbe 5945 58bf
00000170: 4a23 1dbf 2397 1e3f 0100 fa3e 1b6d ecbe
00000180: 2113 583e ec7b 1abf e5f7 d9be a94d 943e
00000190: f915 59bf 23d6 0fbe 3b96 1f3e cae5 903c
000001a0: 2713 8cbf a282 033e 4499 cf3e 0556 12be
000001b0: 8260 b43e 4ab1 84be 835c 8d3d 4967 603d
000001c0: efbf 9ebd 895e 15bf 125e 3e3e c9bc 9a3e
000001d0: d0ed c93b 7cfb c4be 4ce2 26bc 194a 673f
000001e0: 4a31 c73e 2896 9c3e 986a dcbe 0ebb c33d
000001f0: a59b 60bf 3444 543e 2aeb fa3d 902a a0be

running_mean f4 [128]
0.07057387 -0.48337328 -0.718487 -0.2783505 0.5701082 -0.4883435 0.42084545 2.1093616
0.62790686 0.15455428 -0.40549028 3.610347 1.517067 1.8719126 5.338257 -0.058438286
3.0376985 -1.2466532 0.17649543 5.0242925 -6.1056323 -1.3211131 1.1318072 0.37492722
-0.35996574 4.248281 -2.0989766 0.3103747 -0.57468134 -2.1744616 0.37616912 1.3179739
1.3931975 -1.6207108 -3.173723 -0.19067919 -0.49462786 -2.184871 -0.45095384 3.4912102
0.3925524 1.6147219 1.5547353 0.25244257 -0.29195288 0.7137769 -1.2793282 1.7423856
-0.29076266 -3.1683862 -0.55097604 0.2546653 -0.15493087 1.4329195 1.9654548 0.17004342
-0.12330779 -6.045778 0.051333997 1.691797 0.6507113 -0.20518494 0.68195164 -0.5486802
-0.7011509 -0.9450749 0.6234082 -0.39355588 -0.18625244 -0.54796696 0.03660574 -0.1040529
0.5893527 -0.56030476 -4.648098 0.32593936 0.31906372 0.55558 0.5606106 0.9054434
-4.272762 -0.21527213 -1.0506463 0.11959247 -0.24335992 1.0839831 0.20466271 1.9087723
5.4837613 5.472788 -0.07451903 1.6781682 1.0404506 -2.0393572 -0.47117743 5.039569
1.9124951 -0.91134316 0.6561459 0.6295818 -0.6794417 3.6911523 -1.1229706 0.10658969
1.1441878 0.836651 2.2016077 -0.02883203 -0.4870974 -0.55516773 -0.70926183 -6.138192
0.8917849 -1.2761223 0.64584106 -0.5124708 1.5239958 0.75595874 2.0385528 0.63437307
0.4822477 -4.060698 0.97612315 -4.224707 -0.51082647 0.301514 0.78734326 -1.3937285
00000000: 0889 903d b47c f7be c4ee 37bf f583 8ebe
00000010: 9cf2 113f 2908 fabe 0e79 d73e c8ff 0640
00000020: 81be 203f 7a43 1e3e 6c9c cfbe ed0f 6740
00000030: 402f c23f d59a ef3f 00d3 aa40 fc5c 6fbd
00000040: a769 4240 5592 9fbf 38bb 343e 01c7 a040
00000050: 5761 c3c0 3c1a a9bf 0fdf 903f 76f6 bf3e
00000060: 6e4d b8be ebf1 8740 a255 06c0 6fe9 9e3e
00000070: 511e 13bf 612a 0bc0 3d99 c03e 5eb3 a83f
00000080: 4c54 b23f 7473 cfbf 471e 4bc0 6841 43be
00000090: dd3f fdbe edd4 0bc0 6ce3 e6be fd6f 5f40
000000a0: a1fc c83e 35af ce3f 9101 c73f 2740 813e
000000b0: d97a 95be 15ba 363f 07c1 a3bf 7e06 df3f
000000c0: d8de 94be d7c6 4ac0 c40c 0dbf 7d63 823e
000000d0: 33a6 1ebe e869 b73f 0694 fb3f dd1f 2e3e
000000e0: cb88 fcbd 0377 c1c0 9943 523d ce8c d83f
000000f0: 0495 263f 001c 52be 6294 2e3f 4e76 0cbf
00000100: a07e 33bf 6ef0 71bf ae97 1f3f 2880 c9be
00000110: f6b8 3ebe 9047 0cbf e7ef 153d b019 d5bd
00000120: d2df 163f 2270 0fbf 38bd 94c0 86e1 a63e
00000130: 525c a33e 7e3a 0e3f 2d84 0f3f 23cb 673f
00000140: 77ba 88c0 4c70 5cbe 947b 86bf e6ec f43d
00000150: 5833 79be f5bf 8a3f 1a93 513e a752 f43f
00000160: f97a af40 1421 af40 6f9d 98bd 37ce d63f
00000170: 7c2d 853f d484 02c0 2b3e f1be 2644 a140
00000180: a4cc f43f c94d 69bf 2df9 273f 462c 213f
00000190: e4ef 2dbf d73b 6c40 80bd 8fbf b24b da3d
000001a0: bf74 923f c32e 563f 24e7 0c40 2631 ecbc
000001b0: d564 f9be 791f 0ebf 2f92 35bf 126c c4c0
000001c0: 044c 643f fa57 a3bf d755 253f 4931 03bf
000001d0: 4b12 c33f 8386 413f a677 0240 4666 223f
000001e0: 2ce9 f63e 3df1 81c0 35e3 793f cd30 87c0
000001f0: 86c5 02bf 0b60 9a3e 548f 493f b265 b2bf

running_var f4 [128]
0.054221448 0.035368238 0.1497152 0.019224735 0.031117078 0.050221685 0.0144726755 0.5578244
0.0070644384 0.012303572 0.016008155 1.2783499 0.0102265375 0.648057 3.1667907 0.038091313
1.3656065 0.007129403 0.0032738834 2.3570766 2.7402143 0.011335158 0.013620049 0.0054823104
0.12776071 2.4679346 0.007073049 0.00719421 0.01104708 1.4224583 0.014820238 0.009255604
0.15911935 0.014845029 1.0933609 0.0034576694 0.07176679 1.1863251 0.014192922 0.8085562
0.004853617 0.46168283 0.017710388 0.011776264 0.3169605 0.011371325 0.2036479 0.026971048
0.030270811 1.7499417 0.017274087 0.03329074 0.12343486 0.10359184 0.41470638 0.014788473
0.0037337304 3.3795536 0.003623745 0.4901164 0.017445464 0.006399656 0.009037181 0.021365795
0.013046924 0.6337155 0.013001722 0.016949728 0.29386777 0.008766284 0.023243813 0.27908775
0.13607936 0.010349409 3.3566494 0.017170427 0.009059453 0.37253883 0.0046461453 1.12255
1.7565382 0.03638467 0.0047352994 0.00770925 0.015938474 0.006740886 0.020667031 0.28427622
4.6631246 2.5697436 0.009468428 0.028177964 0.007503688 0.0074895294 0.035109647 2.3167582
1.2743106 0.059407532 0.0106735155 0.024494408 0.0032501516 2.7752144 1.2030456 0.17674637
0.0028780396 0.01426572 0.5616588 0.020846557 0.009604305 0.010096725 0.0162453 4.4955773
0.021652045 0.012043804 0.007344591 0.02540337 0.86843723 0.1536722 0.28405118 0.017371366
0.0029331727 2.5161712 0.016902667 2.1884522 0.023890227 0.0065180114 0.009094358 1.0143656
00000000: 4f17 5e3d 49de 103d f14e 193e 317d 9d3c
00000010: 3ee9 fe3c 41b5 4d3d cd1e 6d3c 94cd 0e3f
00000020: ce7c e73b ec94 493c 8923 833c f8a0 a33f
00000030: 358d 273c 10e7 253f b3ac 4a40 a305 1c3d
00000040: 32cc ae3f c49d e93b a68e 563b 58da 1640
00000050: ac5f 2f40 19b7 393c a026 5f3c f4a4 b33b
00000060: b4d3 023e a4f2 1d40 09c5 e73b 68bd eb3b
00000070: d0fe 343c 1d13 b63f 95d0 723c d1a4 173c
00000080: 2ff0 223e 9138 733c 40f3 8b3f 119a 623b
00000090: 77fa 923d 80d9 973f 6e89 683c 8afd 4e3f
000000a0: 170b 9f3b b161 ec3e 6015 913c 3bf1 403c
000000b0: a648 a23e cb4e 3a3c 1389 503e 63f2 dc3c
000000c0: 7efa f73c 17fe df3f 6382 8d3c df5b 083d
000000d0: 6acb fc3d f527 d43d 6554 d43e 5a4b 723c
000000e0: 9ab1 743b 9b4a 5840 5a7c 6d3b 89f0 fa3e
000000f0: cae9 8e3c 35b4 d13b af10 143c 5207 af3c
00000100: c4c2 553c 2e3b 223f 2d05 553c 28da 8a3c
00000110: d675 963e 76a0 0f3c cf69 be3c 97e4 8e3e
00000120: 6358 0b3e 9190 293c 58d3 5640 ffa8 8c3c
00000130: 1a6e 143c 69bd be3e b13e 983b b8af 8f3f
00000140: 3ed6 e03f 1708 153d 922a 9b3b e09d fc3b
00000150: 6791 823c a6e2 dc3b e84d a93c a78c 913e
00000160: 5138 9540 ae76 2440 7721 1b3c 79d5 e63c
00000170: 7fe1 f53b ba6a f53b 22cf 0f3d c445 1440
00000180: 9c1c a33f 5055 733d f8df 2e3c 7fa8 c83c
00000190: 7f00 553b 1d9d 3140 66fd 993f 00fd 343e
000001a0: 7e9d 3c3b c4ba 693c dfc8 0f3f 66c6 aa3c
000001b0: 605b 1d3c bc6c 253c dd14 853c c5db 8f40
000001c0: a15f b13c 6053 453c e5aa f03b ba1a d03c
000001d0: e751 5e3f 3f5c 1d3e 286f 913e 654e 8e3c
000001e0: 793a 403b f308 2140 7677 8a3c 9a0f 0c40
000001f0: 70b5 c33c 0b95 d53b 8100 153c bbd6 813f

weight f4 [64, 128]
0.079744875 -0.13463573 -0.5484394 -1.0456818 1.2498556 -1.1247799 -0.7186266 -0.5774749
-1.1915238 -0.7085114 0.38124812 -0.12530419 -1.0123938 -0.14622724 0.5129365 1.0756928
-0.18512674 0.114144966 0.14831269 -0.10381237 -0.21995716 0.51674414 -0.038587075 0.4411996
0.61842036 -0.08376775 0.49124363 0.5975219 0.82905585 -0.13623136 -0.31259972 0.28801575
0.021526232 -0.040550318 0.22420573 0.51253057 -0.13021529 -0.5742355 1.0563215 0.3294184
0.043115884 -0.33223903 -1.1730477 -1.2074914 0.68297464 -0.9203829 -0.31828868 -1.1666323
-0.11888444 -0.74945986 1.1814071 -0.12328874 -0.68454534 -0.11689694 0.20059964 0.25116816
-0.4182909 0.16251174 0.39855504 0.74724036 0.47102046 -0.23544833 -1.156932 0.99269336
-0.46072048 -0.10885942 -0.70700705 0.7905814 -0.010506893 0.8319607 -0.36639085 0.001665366
0.20672935 0.2807518 -0.23317418 0.5903089 -0.050175782 0.07834782 -1.193878 0.1503792
-0.07999477 0.112726316 0.3981402 -0.14996698 1.015483 1.4335058 -0.74986804 0.6016594
-0.46536875 -0.27177116 0.25095046 -0.73521185 -0.6112472 -0.15067793 1.1119202 0.3185016
-0.31412598 -0.9590577 0.52309245 -0.53620374 -0.76499695 0.2536467 -0.87075436 0.23753509
-0.81734395 -0.05411663 -0.007556174 0.9215808 0.44274625 0.35024363 1.0221435 0.005853642
-0.3971148 1.4133279 -0.6549008 -1.0882217 0.87622803 0.8031271 -0.08875785 -0.41362613
-0.18978675 0.39156774 -0.83693457 0.3813324 -0.903278 0.3318259 1.3995517 0.62608135
0.13938023 0.4324199 -0.40138105 0.019350251 0.46181083 0.10318112 0.088374145 -0.15181491
0.37627837 1.0958443 -0.5220368 0.5079359 -0.2992502 0.23081212 0.37179667 0.4521264
-0.24193217 -0.45250994 -0.9831729 -0.17234004 -0.16132589 -0.9239801 0.2471339 0.6448263
-0.14154407 -0.28910017 -0.95720565 -0.6754192 -1.2117856 -0.16972049 0.09308928 1.6897655
-0.28862953 0.02365477 0.029284555 -0.5205543 0.26419723 -0.11068992 -0.18834057 0.08783535
-0.14340828 0.37800735 -1.3733735 0.85558265 -0.13504486 1.042111 -0.47340828 0.3822632
-0.67721874 -0.036448214 0.47473454 -0.38740978 -0.546258 -0.8303121 -0.18028557 -0.27142915
0.7676246 -0.5509702 0.86601746 -0.12583713 1.4568065 -0.8840585 1.898986 0.91121
-0.10130197 -0.16073538 0.5532039 -0.03268419 0.28907755 -0.45278418 0.1268914 0.18840876
-0.078591436 -0.4984033 -0.17297037 -0.048262123 0.71134686 -0.045215536 1.2906259 0.2881614
-0.031275205 0.46380228 -0.32873294 -0.41937524 0.3788435 -1.3204241 0.65634304 -0.45408157
-0.46582597 -0.44394103 -0.5991684 -0.81827855 0.9409877 -1.4225221 -0.06609344 -0.050228316
-0.24472016 -0.44483894 -0.674105 -0.3301946 0.302496 -0.29534718 -0.30035868 0.60155356
0.5715046 0.32830822 -0.5830608 0.5600481 -0.5939225 1.1894504 0.42632034 0.34053138
-0.8774053 -1.1318381 0.026349664 0.06548616 0.073643886 0.43936348 0.38939956 -1.3322995
-0.36916807 0.15619221 -0.2759236 0.34379837 -0.10357455 -0.68694705 -1.3304704 -0.31071955
00000000: 4851 a33d f3dd 09be 8666 0cbf e7d8 85bf
00000010: 45fb 9f3f caf8 8fbf eaf7 37bf 65d5 13bf
00000020: da83 98bf 0161 35bf f432 c33e be4f 00be
00000030: 1f96 81bf 98bc 15be ce4f 033f 4db0 893f
00000040: dd91 3dbe d6c4 e93d 48df 173e 949b d4bd
00000050: 733c 61be 5849 043f 7b0d 1ebd eae4 e13e
00000060: cc50 1e3f 6d8e abbd 4984 fb3e 32f7 183f
00000070: 013d 543f 3c80 0bbe 120d a0be cd76 933e
00000080: c857 b03c 1718 26bd 3096 653e 3435 033f
00000090: 2857 05be 1901 13bf 8b35 873f 87a9 a83e
000000a0: 489a 303d 3c1b aabe 6d26 96bf 148f 9abf
000000b0: 6dd7 2e3f 379e 6bbf bcf6 a2be 3554 95bf
000000c0: af79 f3bd 9adc 3fbf 5938 973f cf7e fcbd
000000d0: 5d3e 2fbf aa67 efbd fe69 4d3e 1d99 803e
000000e0: 3a2a d6be 7a69 263e 680f cc3e 254b 3f3f
000000f0: 9829 f13e 5e19 71be 5916 94bf 2721 7e3f
00000100: 8ee3 ebbe b0f1 debd 6afe 34bf 8b63 4a3f
00000110: 1a25 2cbc 60fb 543f 9597 bbbe 6948 da3a
00000120: dcb0 533e b3be 8f3e 36c5 6ebe 7c1e 173f
00000130: 1f85 4dbd d274 a03d ffd0 98bf 01fd 193e
00000140: 4cd4 a3bd 0edd e63d 08d9 cb3e f290 19be
00000150: 59fb 813f 1e7d b73f 5af7 3fbf 5a06 1a3f
00000160: d044 eebe 9725 8bbe 947c 803e d836 3cbf
00000170: b27a 1cbf 514b 1abe 6753 8e3f a412 a33e
00000180: 1fd5 a0be ce84 75bf 63e9 053f a644 09bf
00000190: d7d6 43bf fbdd 813e c2e9 5ebf 663c 733e
000001a0: 743d 51bf 66a9 5dbd c899 f7bb b8ec 6b3f
000001b0: a3af e23e 2253 b33e 99d5 823f e8cf bf3b
000001c0: a252 cbbe eee7 b43f 94a7 27bf d94a 8bbf
000001d0: 7b50 603f bd99 4d3f adc6 b5bd cec6 d3be
000001e0: 7557 42be 917b c83e 5841 56bf 003e c33e
000001f0: 3a3d 67bf 16e5 a93e 8324 b33f de46 203f
00000200: b1b9 0e3e 2466 dd3e d181 cdbe 6b84 9e3c
00000210: 7872 ec3e 9f50 d33d 81fd b43d 5e75 1bbe
00000220: 8fa7 c03e a044 8c3f 34a4 05bf 1608 023f
00000230: 5237 99be 035a 6c3e 225c be3e 1d7d e73e
00000240: 11bd 77be 62af e7be 38b1 7bbf e879 30be
00000250: 9d32 25be f689 6cbf ab10 7d3e 5613 253f
00000260: eef0 10be f004 94be 6e0b 75bf 46e8 2cbf
00000270: ca1b 9bbf 35cb 2dbe 98a5 be3d 3c4a d83f
00000280: 40c7 93be a6c7 c13c 2ae6 ef3c 0c43 05bf
00000290: dc44 873e 66b1 e2bd 5adc 40be 05e3 b33d
000002a0: 9fd9 12be 2e8a c13e b4ca afbf 7707 5b3f
000002b0: 3349 0abe e563 853f 9262 f2be 01b8 c33e
000002c0: 355e 2dbf b94a 15bd 6810 f33e 935a c6be
000002d0: 90d7 0bbf 558f 54bf c89c 38be c3f8 8abe
000002e0: 0c83 443f 620c 0dbf 52b3 5d3f 73db 00be
000002f0: a378 ba3f a851 62bf f911 f33f 0f45 693f
00000300: 6877 cfbd d197 24be c59e 0d3f dbdf 05bd
00000310: f901 943e 54d3 e7be d2ef 013e 3aee 403e
00000320: 8cf4 a0bd b82e ffbe 251f 31be 81ae 45bd
00000330: d41a 363f ed33 39bd 3b33 a53f e489 933e
00000340: 6e1a 00bd 7e77 ed3e af4f a8be 5ab8 d6be
00000350: c6f7 c13e a803 a9bf 1906 283f 617d e8be
00000360: be80 eebe 3d4c e3be 1a63 19bf b47a 51bf
00000370: 92e4 703f 3415 b6bf ff5b 87bd 35bc 4dbd
00000380: ec97 7abe eec1 e3be 2592 2cbf 440f a9be
00000390: c1e0 9a3e bf37 97be 9dc8 99be 6aff 193f
000003a0: 204e 123f 0418 a83e 7943 15bf 505f 0f3f
000003b0: 4e0b 18bf e93f 983f a946 da3e 215a ae3e
000003c0: a29d 60bf 12e0 90bf 40db d73c 9c1d 863d
000003d0: 9bd2 963d 40f4 e03e 615f c73e ca88 aabf
000003e0: 9903 bdbe daf0 1f3e dc45 8dbe 5706 b03e
000003f0: e51e d4bd c3db 2fbf db4c aabf a216 9fbe

bias f4 [64]
0.16851152 -0.15513027 -0.10220627 0.092692114 -0.05521935 -0.00150225 0.018832672 -0.18560311
0.09827674 -0.0013636794 0.16036868 -0.0036135267 -0.027245397 -0.09586636 0.054342836 0.031732593
0.031243384 0.047093898 -0.031147497 0.088914104 -0.014665893 -0.049275167 -0.041445397 -0.09445941
0.017709075 -0.069790386 -0.0815465 -0.032839578 -0.013059757 0.025100062 0.10244926 0.044079233
-0.08992928 0.0015872848 -0.057405278 -0.0031355307 0.03763935 0.04128353 -0.023552451 -0.10254804
-0.0050965375 -0.03246764 -0.037159376 0.122786805 -0.20796418 0.034615066 -0.11555147 0.1753331
-0.0055873715 0.044585854 0.08955998 0.012753241 0.14888665 0.040645123 0.026529685 0.13205995
0.011254179 0.05455104 -0.17181998 0.03513857 0.06775296 0.10464833 -0.0021195358 0.0003684309
00000000: 498e 2c3e 78da 1ebe 8551 d1bd 5dd5 bd3d
00000010: af2d 62bd 25e7 c4ba fa46 9a3c be0e 3ebe
00000020: 5145 c93d 7dbd b2ba b037 243e ebd0 6cbb
00000030: bd31 dfbc 9555 c4bd 9896 5e3d 09fa 013d
00000040: 20f2 ff3c 88e5 403d 0929 ffbc 9918 b63d
00000050: 3749 70bc c2d4 49bd a6c2 29bd ef73 c1bd
00000060: 9f12 913c 43ee 8ebd da01 a7bd cb82 06bd
00000070: 97f8 55bc a59e cd3c ebd0 d13d 6d8c 343d
00000080: d82c b8bd 710c d03a cc21 6bbd 7a7d 4dbb
00000090: b82b 1a3d eb18 293d 12f1 c0bc b504 d2bd
000000a0: db00 a7bb cafc 04bd 6e34 18bd a677 fb3d
000000b0: 90f4 54be 87c8 0d3d 40a6 ecbd 858a 333e
000000c0: 4516 b7bb a89f 363d 396b b73d f8f2 503c
000000d0: be75 183e 807b 263d c854 d93c b93a 073e
000000e0: 7363 383c e970 5f3d 94f1 2fbe 76ed 0f3d
000000f0: 10c2 8a3d dd51 d63d e9e7 0abb f529 c139

weight f4 [64]
2.2977414 3.15796 7.869615 4.872412 2.4158437 0.30125615 2.640155 1.9333053
2.918673 4.687277 2.2106345 5.717956 2.595679 8.520118 4.1833057 2.7989416
2.9164202 3.336452 5.6685095 2.3697329 5.1613326 1.4696188 8.094719 2.5731637
4.176089 1.6515148 2.3985624 2.205873 2.7749143 7.346205 5.0564466 2.4316354
4.139009 2.7454152 5.164545 4.0337834 6.551787 2.1535313 1.2861848 2.3661973
2.560186 3.4815886 2.488555 2.7609665 2.0228322 4.680498 8.594974 2.5601785
0.2034535 3.0819783 2.6304367 8.322568 1.8401443 2.396333 2.4840987 2.174182
4.2171335 -0.33278096 6.9830256 3.997632 0.04691642 6.1081476 2.661443 1.5533671
00000000: 320e 1340 041c 4a40 e3d3 fb40 cdea 9b40
00000010: 2f9d 1a40 3f3e 9a3e 4df8 2840 8c76 f73f
00000020: 8acb 3a40 2cfe 9540 097b 0d40 7ff9 b640
00000030: 9b1f 2640 6752 0841 a4dd 8540 dc21 3340
00000040: a1a6 3a40 6e88 5540 6e64 b540 b4a9 1740
00000050: a329 a540 781c bc3f f883 0141 b7ae 2440
00000060: 85a2 8540 d664 d33f 0c82 1940 062d 0d40
00000070: 3298 3140 1d14 eb40 69ce a140 ea9f 1b40
00000080: c372 8440 e2b4 2f40 f443 a540 c114 8140
00000090: 3da8 d140 75d3 0940 b4a1 a43f c76f 1740
000000a0: 16da 2340 59d2 5e40 7c44 1f40 adb3 3040
000000b0: 1576 0140 a4c6 9540 0385 0941 f7d9 2340
000000c0: 1d56 503e 223f 4540 1359 2840 3d29 0541
000000d0: d989 eb3f 855d 1940 79fb 1e40 cc25 0b40
000000e0: c2f2 8640 4462 aabe f274 df40 34d9 7f40
000000f0: 6f2b 403d f275 c340 1555 2a40 bcd4 c63f

bias f4 [64]
1.8590873 -1.4547848 0.896117 0.89475864 2.0484178 -1.0078589 -2.048243 2.189555
-1.3775245 -1.0480528 -2.146888 -1.0519217 2.4106863 -1.0070084 1.4180001 1.0797794
-1.9942932 0.8366448 0.69837266 2.2240624 -0.25079095 -0.7249908 0.960722 -1.7969651
-1.6500901 -0.80314416 -1.9908538 2.1245468 2.090003 0.21447726 1.4632971 -1.19817
0.7351355 -1.8482934 -0.3750813 0.77285856 0.6510815 -2.2725735 -0.6816076 -2.219661
-1.4259782 1.419312 1.22877 2.2893848 2.1325517 -0.577936 -0.22811098 2.1201222
-0.91953474 2.2828717 -2.5266743 -0.42050615 -1.1018665 1.2023416 2.2407362 2.1119518
-0.26874036 0.7334822 -0.03972288 1.0530919 0.976992 0.19969833 2.4872303 -1.0759379
00000000: 93f6 ed3f 6336 babf ec67 653f e70e 653f
00000010: 4719 0340 8501 81bf 6a16 03c0 ab21 0c40
00000020: b952 b0bf 9826 86bf 9d66 09c0 5fa5 86bf
00000030: af48 1a40 a7e5 80bf 0781 b53f 3636 8a3f
00000040: 0045 ffbf 5b2e 563f 8dc8 323f 0a57 0e40
00000050: ac67 80be ff98 39bf e1f1 753f f402 e6bf
00000060: 2736 d3bf db9a 4dbf 4cd4 febf 93f8 0740
00000070: 9cc2 0540 ed9f 5b3e 524d bb3f a25d 99bf
00000080: d731 3c3f e194 ecbf a80a c0be 0fda 453f
00000090: 47ad 263f d871 11c0 d67d 2ebf ed0e 0ec0
000000a0: 7486 b6bf 04ac b53f 5648 9d3f 4885 1240
000000b0: ba7b 0840 9df3 13bf ed95 69be 15b0 0740
000000c0: a166 6bbf 921a 1240 08b5 21c0 954c d7be
000000d0: f609 8dbf 54e6 993f 3968 0f40 382a 0740
000000e0: 5698 89be 7dc5 3b3f 75b4 22bd b7cb 863f
000000f0: 261c 7a3f b87d 4c3e c82e 1f40 55b8 89bf

running_mean f4 [64]
7.6098256 -4.989208 5.9567084 2.8302286 -1.349725 -1.5726382 -0.45916912 -0.38217378
-4.364133 -5.196206 2.1197448 -3.9175775 -0.3192992 -3.9980085 4.676358 3.1251335
7.1747365 -7.5525594 0.7128507 4.5123343 -7.0393033 -5.7955337 7.682101 -3.8103938
-3.6776075 -7.7105026 -8.374133 0.63923186 9.571248 -8.717117 7.5169096 4.804789
5.110239 -2.7390094 7.0421147 0.531326 -0.09747291 1.0380081 -11.878641 -9.314843
-4.4101768 -3.8509462 5.6546774 11.313784 1.4833546 7.375565 -6.7490463 -4.8865137
-10.619786 -4.869979 3.7414486 -8.749028 -4.9235296 2.7454915 3.6393633 0.33032405
-10.967921 -3.6783197 8.663758 5.044224 -5.3856874 -6.1260386 -2.1234896 -6.114526
00000000: b183 f340 98a7 9fc0 5b9d be40 7722 3540
00000010: cac3 acbf 354c c9bf 3718 ebbe 48ac c3be
00000020: faa6 8bc0 5247 a6c0 e6a9 0740 97b9 7ac0
00000030: 2f7b a3be 5fdf 7fc0 baa4 9540 3002 4840
00000040: 7197 e540 91ae f1c0 627d 363f 0b65 9040
00000050: f941 e1c0 0375 b9c0 c5d3 f540 7edd 73c0
00000060: ec5d 6bc0 70bc f6c0 73fc 05c1 b3a4 233f
00000070: d523 1941 5079 0bc1 868a f040 d5c0 9940
00000080: 1487 a340 ee4b 2fc0 0159 e140 fb04 083f
00000090: e19f c7bd 73dd 843f ea0e 3ec1 9909 15c1
000000a0: 2b20 8dc0 e775 76c0 1ef3 b440 4205 3541
000000b0: 90de bd3f a104 ec40 30f8 d7c0 525e 9cc0
000000c0: a5ea 29c1 ded6 9bc0 e573 6f40 05fc 0bc1
000000d0: 8e8d 9dc0 22b6 2f40 54eb 6840 3c20 a93e
000000e0: 9b7c 2fc1 9769 6bc0 c19e 0a41 486a a140
000000f0: 8d57 acc0 8208 c4c0 41e7 07c0 32aa c3c0

running_var f4 [64]
850.0125 932.4243 1145.6478 539.73 518.2737 120.66213 695.5212 734.71655
1019.5269 592.9878 805.4242 1205.4016 659.57434 1150.3815 477.4196 1041.5925
439.25012 827.16406 562.64453 580.176 971.3254 621.9927 1628.9027 740.56476
539.15985 1389.6252 632.16583 577.1156 629.5284 1366.3 559.9298 501.75677
1149.1385 877.0019 844.68054 441.68286 627.47705 649.47144 926.2277 988.78754
791.44745 418.67276 954.79724 618.331 735.24493 1065.1809 1456.7625 643.47034
624.1618 634.62396 538.71014 1475.7882 1065.0468 752.4965 588.9962 777.2829
765.6535 76.19211 1393.8126 586.48096 495.14508 1380.2573 580.10406 685.2038
00000000: cd80 5444 281b 6944 bb34 8f44 b8ee 0644
00000010: 8491 0144 0353 f142 5be1 2d44 dcad 3744
00000020: b9e1 7e44 383f 1444 265b 4944 daac 9644
00000030: c2e4 2444 35cc 8f44 b5b5 ee43 f632 8244
00000040: 04a0 db43 80ca 4e44 40a9 0c44 440b 1144
00000050: d3d4 7244 887f 1b44 e39c cb44 2524 3944
00000060: 3bca 0644 02b4 ad44 9d0a 1e44 6647 1044
00000070: d161 1d44 9ac9 aa44 82fb 0b44 dee0 fa43
00000080: 6fa4 8f44 1f40 5b44 8e2b 5344 68d7 dc43
00000090: 88de 1c44 2c5e 2244 938e 6744 6732 7744
000000a0: a3dc 4544 1d56 d143 06b3 6e44 2f95 1a44
000000b0: adcf 3744 ca25 8544 6618 b644 1ade 2044
000000c0: 5b0a 1c44 efa7 1e44 73ad 0644 3979 b844
000000d0: 7f21 8544 c71f 3c44 c23f 1344 1b52 4244
000000e0: d369 3f44 5c62 9842 013a ae44 c89e 1244
000000f0: 9292 f743 3c88 ac44 a906 1144 0b4d 2b44

weight f4 [24, 64]
-0.5144799 -0.63331646 -1.1042563 -1.3502588 -1.2290024 0.023922125 0.34297448 -0.73609155
0.5474777 1.186875 0.561168 1.1042695 -1.2134463 1.1675401 1.3246508 0.39571905
1.1184722 0.7032253 -1.0315639 0.37733936 0.07105177 1.6620992 -0.8374503 -0.41594285
1.3147572 1.2750324 0.10859424 -1.2881496 -0.45418507 1.1761261 -1.5763611 1.225032
-1.3776782 -1.1073864 -0.74067444 -1.0062644 -2.1112924 0.8269123 -0.034540992 1.4070802
-1.0221024 -1.1731925 -0.6612003 -0.609369 -0.5751836 -0.82917905 1.2976984 -0.8482884
-0.0011936603 -1.5973997 0.9956143 1.3654336 0.64748913 0.042769913 0.60611045 -1.2026916
0.1069141 -0.13410097 -1.2491806 1.1021514 0.18364242 0.39742047 -1.138935 1.3151699
0.18991256 1.3452727 -1.3705513 0.26185516 0.3345272 -2.1566446 1.4470389 0.26493394
0.6824578 -0.09394154 -0.7675341 1.4405668 -0.18366787 1.6590035 -0.9155033 -1.0825152
-0.17888905 0.81540704 0.8149749 -0.48288825 0.8595604 0.50495857 -1.9080204 1.4835461
-0.5957252 0.66855025 -0.74873036 -0.038435638 0.18983044 0.20259072 0.24260372 1.1054754
-0.92394036 1.2712886 -0.9554808 -0.52511674 0.74015844 0.12962937 0.24691127 -0.3911169
0.33993256 -0.37925053 -0.57876706 0.20327663 0.2224443 -0.8952932 1.0147526 0.38956094
-1.1363021 0.59286946 -0.24656929 1.0705528 0.37629592 -1.0093126 -1.3952491 -0.26236406
0.7789725 2.1923966 -0.7937754 0.04272623 1.3365047 0.5628563 -0.17678823 -0.7233084
-0.31628257 0.2875123 0.81815106 0.800893 2.422908 -0.3803325 -0.3248536 2.409772
-1.3760705 -1.0321121 -1.9537424 -0.61274976 1.8706917 -0.4456171 1.2071719 -0.13730676
-1.309746 -0.38446483 0.4875475 0.86736864 -0.37340286 0.16734147 0.6786208 0.10235496
0.112577245 -0.9695686 0.7252466 2.0085545 0.44934684 -0.4135402 -1.1002647 0.03614613
0.9366483 -0.2635192 0.3351481 0.94916403 -0.9668881 -1.7483932 -0.7057052 0.07872771
0.096881986 1.5697876 0.4506868 -0.42464247 1.6074083 0.16689563 -0.37382898 1.8516855
-0.3877535 1.2488345 -1.8297515 0.28349647 -0.51191145 0.8969191 0.36591458 2.0771782
0.72439086 0.93245906 0.13486792 1.5735861 0.94182104 -0.10815338 1.6623877 0.018405106
1.7075298 1.1182591 -0.5709796 1.1157293 0.063099556 -0.3341756 1.5575722 -0.600238
-0.97745097 -1.0903608 0.5102058 0.95251375 -1.1172861 1.2428955 -1.6048638 -1.3142556
0.41860917 1.0561247 0.6521881 -1.4179652 0.6174576 1.0603576 -0.7462983 1.0316703
-1.7585685 0.49610925 -1.3844519 -0.71572095 1.6914297 1.062821 1.5405815 0.18865871
-0.12967782 1.343956 -1.2453468 0.4965948 1.5826428 0.44207275 0.24776442 -1.1764451
0.9960162 0.18777125 0.7078901 1.6856366 -0.58560646 -1.3353137 0.6891908 -0.08234799
-0.42662153 0.13507095 0.8437014 1.005534 -1.0400019 -1.0308158 -1.3077338 -1.045541
0.55254376 0.51406664 -1.1036373 -1.1281613 0.26696447 1.1439655 -0.35150304 0.02726712
00000000: f4b4 03bf 0721 22bf 4558 8dbf 48d5 acbf
00000010: f34f 9dbf 55f8 c33c 5a9a af3e 7f70 3cbf
00000020: 8027 0c3f 85eb 973f b5a8 0f3f b458 8d3f
00000030: 3552 9bbf f471 953f 288e a93f b09b ca3e
00000040: 192a 8f3f 9306 343f 490a 84bf a032 c13e
00000050: 9783 913d abbf d43f 2563 56bf 76f6 d4be
00000060: f749 a83f 4334 a33f a866 de3d 16e2 a4bf
00000070: f28a e8be 4d8b 963f 33c6 c9bf d9cd 9c3f
00000080: c257 b0bf d6be 8dbf d79c 3dbf 46cd 80bf
00000090: 6a1f 07c0 86b0 533f db7a 0dbd 341b b43f
000000a0: 40d4 82bf 2c2b 96bf 6c44 29bf 9bff 1bbf
000000b0: 3b3f 13bf 1445 54bf fb1a a63f 6e29 59bf
000000c0: 9874 9cba 9877 ccbf 94e0 7e3f 87c6 ae3f
000000d0: d9c1 253f 812f 2f3d 0e2a 1b3f ccf1 99bf
000000e0: c8f5 da3d c451 09be 26e5 9fbf 4c13 8d3f
000000f0: c20c 3c3e b27a cb3e 9fc8 91bf 7d57 a83f
00000100: 7078 423e e531 ac3f 3a6e afbf e111 863e
00000110: 2647 ab3e 7706 0ac0 9238 b93f 6ca5 873e
00000120: 8eb5 2e3f 6c64 c0bd 1d7d 44bf 7e64 b83f
00000130: 6e13 3cbe 3a5a d43f 6d5e 6abf dc8f 8abf
00000140: b12e 37be 84be 503f 32a2 503f 213d f7be
00000150: 260c 5c3f f744 013f 033a f4bf d7e4 bd3f
00000160: 7281 18bf 1c26 2b3f cbac 3fbf b06e 1dbd
00000170: e962 423e f173 4f3e 1c6d 783e 3880 8d3f
00000180: 5b87 6cbf 96b9 a23f 649a 74bf 0d6e 06bf
00000190: 067b 3d3f 90bd 043e 4fd6 7c3e 7940 c8be
000001a0: a40b ae3e 202d c2be 142a 14bf c027 503e
000001b0: 70c8 633e ef31 65bf 6ae3 813f 8874 c73e
000001c0: 5972 91bf 4bc6 173f a97c 7cbe e007 893f
000001d0: dca9 c03e 2831 81bf 8697 b2bf 9554 86be
000001e0: be6a 473f 3a50 0c40 dd34 4bbf b301 2f3d
000001f0: 9612 ab3f 5a17 103f f907 35be bd2a 39bf
00000200: caef a1be d034 933e 5972 513f 5307 4d3f
00000210: ed10 1b40 f1ba c2be 3653 a6be b439 1a40
00000220: 1423 b0bf 401c 84bf 3b14 fabf 2bdd 1cbf
00000230: d372 ef3f ed27 e4be 9c84 9a3f 259a 0cbe
00000240: c2a5 a7bf 93d8 c4be d39f f93e df0b 5e3f
00000250: a92e bfbe 905b 2b3e 18ba 2d3f 7a9f d13d
00000260: e68e e63d a635 78bf c3a9 393f 288c 0040
00000270: ca10 e63e 8bbb d3be 79d5 8cbf f70d 143d
00000280: 2fc8 6f3f fdeb 86be 8898 ab3e 6afc 723f
00000290: fb85 77bf 59cb dfbf 19a9 34bf fe3b a13d
000002a0: 106a c63d cdee c83f 6cc0 e63e bd6a d9be
000002b0: 8ebf cd3f b0e6 2a3e 8366 bfbe 0804 ed3f
000002c0: a087 c6be cfd9 9f3f 4c35 eabf 7326 913e
000002d0: a10c 03bf 7d9c 653f 2859 bb3e 7df0 0440
000002e0: ae71 393f a3b5 6e3f d11a 0a3e 456b c93f
000002f0: 2f1b 713f 857f ddbd 1fc9 d43f 4ec6 963c
00000300: 5690 da3f 1d23 8f3f b82b 12bf 38d0 8e3f
00000310: 573a 813d 1019 abbe 875e c73f 33a9 19bf
00000320: 3a3a 7abf f190 8bbf d99c 023f f1d7 733f
00000330: 3b03 8fbf 3317 9f3f 2d6c cdbf 8739 a8bf
00000340: f153 d63e 182f 873f cdf5 263f e27f b5bf
00000350: b411 1e3f ccb9 873f 680d 3fbf c60d 843f
00000360: c618 e1bf 0802 fe3e b835 b1bf 7d39 37bf
00000370: c580 d83f 850a 883f c631 c53f c02f 413e
00000380: 43ca 04be c006 ac3f 8667 9fbf ac41 fe3e
00000390: 0a94 ca3f 5c57 e23e f5b5 7d3e c195 96bf
000003a0: ebfa 7e3f 1b47 403e 4938 353f f1c2 d73f
000003b0: 4eea 15bf 8feb aabf cf6e 303f 10a6 a8bd
000003c0: 236e dabe 0a50 0a3e d1fc 573f 57b5 803f
000003d0: c81e 85bf c6f1 83bf d263 a7bf 4ad4 85bf
000003e0: 8273 0d3f df99 033f fd43 8dbf 9767 90bf
000003f0: 91af 883e 766d 923f 35f8 b3be 4c5f df3c

bias f4 [24]
-0.27561006 3.3606868 1.8154957 0.9402457 1.0618682 4.7117395 -0.3407756 -0.43216753
-2.720346 0.7898391 3.3622208 1.6844437 0.8998578 1.6471051 -3.697131 -2.3499177
0.105964616 0.19824803 0.95723045 -0.40534592 -2.9629157 4.5889826 -0.4835529 -2.1334755
00000000: c31c 8dbe 7e15 5740 2a62 e83f f1b3 703f
00000010: 4ceb 873f 92c6 9640 247a aebe 1045 ddbe
00000020: 261a 2ec0 e532 4a3f a02e 5740 da9b d73f
00000030: 155d 663f 57d4 d23f cb9d 6cc0 0d65 16c0
00000040: fa03 d93d 8801 4b3e 0e0d 753f 8089 cfbe
00000050: 69a0 3dc0 f2d8 9240 3f94 f7be dd8a 08c0
