best_model_mAP_93_06.pth (torch, 154549 bytes, 14 tensors)

weight f4 [128, 200]
-0.043498456 0.17850776 0.45885915 0.3373656 0.82715625 0.3558762 -0.08742045 0.25667852
-0.6000743 0.9621743 0.16727564 -0.32855886 0.4201851 1.0514652 -0.23385307 -0.9852956
0.18589245 0.7534129 -0.16888234 -0.17730698 -0.3061478 -0.5822001 -0.29192263 -0.2445126
0.39425385 -0.41972494 0.42608076 0.7475401 0.24367172 0.15924153 -0.08743608 0.362782
-0.5037075 1.3142451 -0.35521853 -0.40399298 0.4803905 -1.3691525 0.41713804 -0.46925044
-0.4999446 -0.6640114 0.5688654 -0.20053418 0.22768156 0.42866948 0.5112637 0.43759334
-0.13116866 -0.7066512 -0.44285378 0.053711414 0.70978445 0.49826095 0.24893732 0.30313978
0.16801047 0.30238804 -1.1906291 0.7365223 -0.18413454 0.45353773 0.20228764 0.206992
0.97134054 0.6802948 1.3689731 0.59564966 -0.24199438 -0.06891167 0.48503938 0.58136123
0.60869956 -1.0015408 -1.0450338 -0.92640126 0.5013874 1.645025 0.09324573 -0.3298917
0.8198666 0.72136146 1.1284854 -0.18226807 -0.20704794 -0.273756 0.21274844 -0.64459026
-0.17202684 0.39690104 1.2653152 0.31230763 1.0879775 0.03869361 0.12612753 1.1649708
-0.07083332 0.5354901 -0.732804 0.49925706 0.24430284 0.33567762 0.86947286 0.6518796
0.91042036 -1.3209046 0.6652659 0.2901583 -1.7613851 0.68959904 1.0708799 0.28492263
0.43397534 -0.19166757 -0.3478104 -1.0754051 -0.73629755 -0.94018203 -2.0069368 -0.5296992
-0.6569059 0.93670076 -0.47152096 -1.9233546 -1.7559512 0.8596336 0.3530884 0.52772015
-0.7400733 -1.1317997 -1.0598803 0.2629386 -0.18167089 -1.3097364 -0.59606385 -0.21326715
0.056092102 0.08976554 -0.72795826 -1.1295687 -1.0245427 0.24464014 -0.30073172 -0.97634685
-0.04480377 -0.38555503 -0.13107857 0.6445438 -0.5472802 0.054438487 0.13962394 -0.08882693
0.114078134 -0.02847872 -0.554113 -0.31623644 -0.2774714 0.1466788 0.14480603 -0.55928296
0.06864393 -0.50733036 -0.27970448 0.034188345 0.009373513 -0.2601545 -0.3706675 -0.07903857
-0.004544914 0.40021208 -0.37406257 0.33806753 -0.6473524 0.5799123 -0.12146265 0.07228881
-0.636796 -0.2635832 0.176561 -0.14768754 0.1382511 -0.30174646 0.13465029 0.07132129
-0.30136803 -0.6960456 0.047184527 0.01656726 -0.13321476 -0.3156479 -0.35076484 -0.35934517
-0.57332164 -0.79651415 -0.118317656 0.105995044 -0.0041267322 -0.86570764 0.22185528 0.14164391
0.42986083 0.12442616 -0.19052154 -0.028785978 0.6295673 0.0763058 0.2996977 0.3741102
0.1397147 -0.18711384 0.23849237 -0.013178927 -0.06876135 0.8651319 0.56134504 1.4896003
0.19640009 0.30165002 -0.14903332 -0.34870672 1.1508299 -0.34325773 0.34656355 -0.5899471
0.5423521 -0.33598593 0.5451439 0.039451703 -0.0814671 0.041008472 -0.4045968 0.63229334
-0.29299796 0.7360293 -0.18459728 0.43653038 0.48663947 0.34253258 0.036185518 -0.45287886
0.507352 -0.018340006 -0.06628885 0.3869082 0.14106487 0.46588418 -0.15383168 -0.057129297
1.177681 -0.096790686 -0.07934741 0.8326344 1.1143626 0.008933495 0.34580004 0.68265283
00000000: 702b 32bd bdca 363e 96ef ea3e 2fbb ac3e
00000010: 83c0 533f 6835 b63e 7e09 b3bd 5e6b 833e
00000020: 789e 19bf 0e51 763f 4e4a 2b3e de38 a8be
00000030: 8022 d73e 6996 863f 2e77 6fbe 553c 7cbf
00000040: 975a 3e3e abdf 403f 7eef 2cbe f68f 35be
00000050: 68bf 9cbe 110b 15bf e276 95be 8361 7abe
00000060: a4db c93e 30e6 d6be 4227 da3e ca5e 3f3f
00000070: 1485 793e 3610 233e b011 b3bd 90be b93e
00000080: faf2 00bf 2f39 a83f 34df b5be 2bd8 cebe
00000090: bef5 f53e 6440 afbf 1e93 d53e 9841 f0be
000000a0: bdf8 ffbe a7fc 29bf 2aa1 113f d558 4dbe
000000b0: 5b25 693e 917a db3e 2ee2 023f 3c0c e03e
000000c0: 1451 06be 18e7 34bf bbbd e2be 8000 5c3d
000000d0: 6fb4 353f 0f1c ff3e 6de9 7e3e 2335 9b3e
000000e0: f00a 2c3e 9bd2 9a3e 8966 98bf ba8c 3c3f
000000f0: c48d 3cbe 1936 e83e 7e24 4f3e b6f5 533e
00000100: c6a9 783f cd27 2e3f 833a af3f 7f7c 183f
00000110: 60cd 77be 9021 8dbd 1557 f83e 17d4 143f
00000120: bcd3 1b3f 7d32 80bf abc3 85bf a228 6dbf
00000130: ed5a 003f 2e90 d23f 9ef7 be3d 91e7 a8be
00000140: c7e2 513f 25ab 383f 3672 903f 7ba4 3abe
00000150: 6004 54be bf29 8cbe bada 593e de03 25bf
00000160: ce27 30be 9d36 cb3e d9f5 a13f c9e6 9f3e
00000170: d942 8b3f 317d 1e3d 9327 013e c31d 953f
00000180: 0f11 91bd e115 093f 0b99 3bbf 9f9e ff3e
00000190: 862a 7a3e f0dd ab3e c695 5e3f 95e1 263f
000001a0: 4f11 693f 6713 a9bf de4e 2a3f a18f 943e
000001b0: 1175 e1bf 9089 303f 9812 893f 61e1 913e
000001c0: 0432 de3e 8144 44be 3414 b2be e0a6 89bf
000001d0: ff7d 3cbf c5af 70bf a771 00c0 5e9a 07bf
000001e0: fc2a 28bf 9fcb 6f3f 326b f1be 7c30 f6bf
000001f0: 02c3 e0bf f310 5c3f 01c8 b43e ab18 073f
00000200: 7275 3dbf d0de 90bf 28aa 87bf e39f 863e
00000210: ef07 3abe 71a5 a7bf a497 18bf b462 5abe
00000220: d5c0 653d ffd6 b73d 795b 3abf b595 90bf
00000230: 3724 83bf f282 7a3e 82f9 99be def1 79bf
00000240: 2884 37bd 7867 c5be 7639 06be d300 253f
00000250: 8e1a 0cbf e4fa 5e3d 94f9 0e3e e5ea b5bd
00000260: cca1 e93d 344c e9bc 59da 0dbf bee9 a1be
00000270: bb10 8ebe f832 163e 0848 143e 2b2d 0fbf
00000280: 3095 8c3d 67e0 01bf 6d35 8fbe 1409 0c3d
00000290: 5d93 193c f832 85be 21c8 bdbe f9de a1bd
000002a0: 80ed 94bb 99e8 cc3e 2185 bfbe 3017 ad3e
000002b0: e3b8 25bf 2275 143f 69c1 f8bd 280c 943d
000002c0: 1005 23bf 61f4 86be 68cc 343e 673b 17be
000002d0: b291 0d3e 837e 9abe c4e1 093e e610 923d
000002e0: e94c 9abe 0b30 32bf 9044 413d 10b8 873c
000002f0: 7369 08be 9a9c a1be 7397 b3be 17fc b7be
00000300: 35c5 12bf 5ae8 4bbf 8750 f2bd ee13 d93d
00000310: 8a39 87bb 049f 5dbf 082e 633e 1a0b 113e
00000320: b816 dc3e 24d3 fe3d 1418 43be 92d0 ebbc
00000330: 532b 213f 3746 9c3d fa71 993e 5f8b bf3e
00000340: 5f11 0f3e c59a 3fbe 5837 743e 6dec 57bc
00000350: c0d2 8cbd 4979 5d3f 4fb4 0f3f 39ab be3f
00000360: 1b1d 493e df71 9a3e 319c 18be b089 b2be
00000370: 654e 933f 7abf afbe c770 b13e c606 17bf
00000380: 96d7 0a3f 5906 acbe 8d8e 0b3f 1c98 213d
00000390: 39d8 a6bd 80f8 273d 5027 cfbe fadd 213f
000003a0: d403 96be 6b6c 3c3f 1207 3dbe e980 df3e
000003b0: cf28 f93e 6e60 af3e 4437 143d bddf e7be
000003c0: d2e1 013f c83d 96bc 73c2 87bd d518 c63e
000003d0: 4f73 103e 5f88 ee3e 0d86 1dbe 6900 6abd
000003e0: 40be 963f 323a c6bd e580 a2bd 8727 553f
000003f0: 6fa3 8e3f cb5d 123c b40c b13e 56c2 2e3f

bias f4 [128]
0.19830117 -0.1240413 0.22739826 0.17645314 0.57643986 -0.15986325 0.18195693 0.10958705
0.2116394 0.33198792 0.55362755 0.7016305 -0.38260654 0.06990395 0.49126726 -0.044226214
-0.20105815 -0.6367758 0.10328517 0.17274399 -0.31472585 -0.3598165 0.072620764 0.13941075
-0.22100423 -0.15563126 -0.16312334 -0.5076483 -0.15744932 -0.06575254 -0.34591946 -1.169535
1.173856 0.04522027 0.21021202 0.21643709 -0.2273124 -0.322861 -0.76511484 -0.05654623
0.6835694 -0.31897673 -0.4114794 -0.15038358 -0.18249029 -0.19876906 0.42797852 0.0067193704
-0.040865183 -0.07220499 -0.2884382 0.05345752 1.5812913 0.44524652 0.380211 0.07155
-0.7105333 0.9616657 0.6562483 0.64309794 -0.46209097 0.13692383 0.3306646 0.059673063
0.6388829 -0.6806888 0.21712328 -0.33659738 -0.83167726 0.51975524 0.026123147 0.75154054
-0.47906837 0.16238575 -0.5359515 0.16018039 0.3130767 0.090330094 -0.358451 1.1157726
-0.8628023 -0.5231503 -0.12841868 0.15515214 -0.025216024 -0.34336585 -0.1327947 0.059778705
-0.015294866 -0.021995185 0.29397663 0.42606145 0.8491228 -0.46687654 0.13354613 0.74086624
-0.5552033 -0.14932838 -1.1853343 -0.076828 0.68836725 -0.5500996 -0.17868388 -0.27148023
-0.041953735 -0.47432488 -0.17126743 0.20884542 0.11056476 0.46820772 -0.6854686 0.081441455
-0.67423606 0.3627923 -0.49596438 -0.3078571 -0.0056030643 0.033489533 -0.95513314 0.19853131
0.96162665 0.39734784 -0.05210363 -0.38235474 0.11480748 0.3127348 0.37207288 0.47042978
00000000: 760f 4b3e 5d09 febd 17db 683e 22b0 343e
00000010: 9091 133f 31b3 23be eb52 3a3e 2d6f e03d
00000020: 00b8 583e 52fa a93e 89ba 0d3f 0e9e 333f
00000030: 01e5 c3be cd29 8f3d 6287 fb3e 8c26 35bd
00000040: 30e2 4dbe bd03 23bf 2d87 d33d cde3 303e
00000050: bf23 a1be de39 b8be 32ba 943d b1c1 0e3e
00000060: ef4e 62be cd5d 1fbe ce09 27be 3df5 01bf
00000070: 653a 21be 45a9 86bd 5b1c b1be 53b3 95bf
00000080: ea40 963f e438 393d d241 573e afa1 5d3e
00000090: 95c4 68be 094e a5be 91de 43bf 059d 67bd
000000a0: 67fe 2e3f eb50 a3be 6ead d2be 27fe 19be
000000b0: bcde 3abe 1e8a 4bbe 0020 db3e 2a2e dc3b
000000c0: 4062 27bd 36e0 93bd 2cae 93be 46f6 5a3d
000000d0: c167 ca3f 5af7 e33e 04ab c23e ce88 923d
000000e0: 83e5 35bf b92f 763f e3ff 273f 11a2 243f
000000f0: 3097 ecbe c335 0c3e df4c a93e be6b 743d
00000100: d48d 233f 9f41 2ebf 9155 5e3e 7e56 acbe
00000110: cde8 54bf ae0e 053f 3600 d63c f664 403f
00000120: 7348 f5be 7348 263e 1e34 09bf 5406 243e
00000130: 974b a03e fcfe b83d e486 b7be a3d1 8e3f
00000140: 9de0 5cbf 2eed 05bf 3080 03be 34e0 1e3e
00000150: d691 cebc a6cd afbe 55fb 07be 84da 743d
00000160: 5197 7abc 3f2f b4bc 1b84 963e ba24 da3e
00000170: 1d60 593f 710a efbe 51c0 083e 69a9 3d3f
00000180: ce21 0ebf 8ae9 18be 09b9 97bf 0058 9dbd
00000190: d638 303f 54d3 0cbf e8f8 36be 75ff 8abe
000001a0: aed7 2bbd b6da f2be bb60 2fbe 93db 553e
000001b0: c76f e23d ecb8 ef3e df7a 2fbf c7ca a63d
000001c0: bc9a 2cbf eabf b93e 0bef fdbe 729f 9dbe
000001d0: e999 b7bb 522c 093d 9b83 74bf cb4b 4b3e
000001e0: 2a2d 763f 2d71 cb3e 9e6a 55bd 00c4 c3be
000001f0: 2f20 eb3d c71e a03e 5680 be3e 2cdc f03e

weight f4 [128]
0.66231304 0.0054618362 0.036838852 0.7246477 0.7966391 -0.012303837 0.44918624 0.016985966
-0.007577267 0.80054104 0.9842371 -0.07897649 0.8928487 0.4969045 -0.06389771 0.032580964
-0.052322 0.6328018 -0.041201584 0.58557373 1.518035 1.4459939 1.1503146 0.02110872
-0.06388042 1.36603 -0.0071472717 0.56295943 -0.097285986 0.740883 1.2308373 1.4127332
1.7367998 1.2406445 0.71959394 0.6628283 0.018739343 0.0068998937 0.5357551 0.91692394
0.7950048 1.083487 1.150282 -0.033253442 0.08110401 0.8085324 1.3264406 0.8841827
-0.012999119 0.055250704 0.096637614 1.7439822 1.3134507 1.471102 0.06353361 0.05706968
-0.0049271057 1.2979043 0.68127006 1.6042615 0.24167731 -0.11997977 0.0037770674 1.3401493
0.8442076 1.2268839 0.6015159 0.29962352 0.90774995 0.23639378 0.89662033 0.74276936
1.3376966 0.6381693 0.55462176 1.1670953 0.88907534 0.030810483 1.7220731 0.45558676
1.6377469 0.90364116 1.367394 -0.03083165 1.0596814 0.7234972 0.5306896 0.65786505
0.03822755 -0.038985267 1.1328741 1.8351245 0.8286996 1.772951 -0.0039569186 1.0708917
0.36457154 0.009662892 0.9513774 1.2630385 0.7323898 0.9229478 0.12229974 1.1922168
0.0059881425 0.5922962 1.1096383 0.18069215 1.6809568 0.16986069 1.382729 -0.031772465
1.1468652 1.3085898 1.0889884 0.8937931 1.1393675 0.013814216 0.50895363 0.37231293
2.0090148 -0.1411328 1.4955863 0.5576028 0.64089566 0.38938007 0.24423727 0.42014378
00000000: 598d 293f 34f9 b23b 56e4 163d 8382 393f
00000010: 8af0 4b3f 0896 49bc bdfb e53e 2726 8b3c
00000020: b94a f8bb 42f0 4c3f f6f6 7b3f 6dbe a1bd
00000030: bb91 643f 446a fe3e cddc 82bd 9e73 053d
00000040: 984f 56bd 4cff 213f fec2 28bd 29e8 153f
00000050: f94e c23f 5416 b93f 823d 933f 32ec ac3c
00000060: bdd3 82bd 12da ae3f a933 eabb 1c1e 103f
00000070: e03d c7bd 82aa 3d3f 148c 9d3f 71d4 b43f
00000080: 754f de3f 70cd 9e3f 4f37 383f 1eaf 293f
00000090: 4083 993c 8118 e23b 3f27 093f 87bb 6a3f
000000a0: 6f85 4b3f b4af 8a3f 713c 933f c334 08bd
000000b0: dc19 a63d fbfb 4e3f cec8 a93f cc59 623f
000000c0: 42fa 54bc 904e 623d f1e9 c53d cf3a df3f
000000d0: 271f a83f 124d bc3f e91d 823d e6c1 693d
000000e0: 8f73 a1bb ba21 a63f b767 2e3f 7158 cd3f
000000f0: 427a 773e f4b7 f5bd ad88 773b 038a ab3f
00000100: fd1d 583f 880a 9d3f f2fc 193f 4168 993e
00000110: 4d62 683f 3611 723e e988 653f 2226 3e3f
00000120: a439 ab3f 105f 233f b1fb 0d3f 6163 953f
00000130: 719a 633f 4466 fc3c e46c dc3f ab42 e93e
00000140: b1a1 d13f 0755 673f c406 af3f a892 fcbc
00000150: a4a3 873f 1d37 393f 46db 073f d869 283f
00000160: 7e94 1c3d 04af 1fbd 0502 913f 5ce5 ea3f
00000170: a825 543f 0ff0 e23f 0aa9 81bb fb12 893f
00000180: 1fa9 ba3e 1b51 1e3c 788d 733f 3fab a13f
00000190: e67d 3b3f 4f46 6c3f 4978 fa3d 8f9a 983f
000001a0: 2e38 c43b b9a0 173f a108 8e3f 5d07 393e
000001b0: 9829 d73f f6ef 2d3e 44fd b03f d823 02bd
000001c0: 7bcc 923f df7f a73f f963 8b3f a0cf 643f
000001d0: cbd6 913f 0555 623c c94a 023f cd9f be3e
000001e0: b393 0040 1e85 10be 5f6f bf3f 0fbf 0e3f
000001f0: bd11 243f d35c c73e 5619 7a3e 161d d73e

bias f4 [128]
-0.19849463 0.29811502 0.113873884 0.054292053 -0.4784345 -0.24292777 0.5697592 0.06833365
0.075199924 0.5815157 -0.015069532 0.15934682 0.18144712 0.35754457 -0.13600965 -0.046833817
-0.40352213 -0.32515633 0.24364157 0.24451636 0.629195 -0.02571736 -0.36104634 -0.18555303
0.22118817 -0.30582327 0.25567552 -0.072354734 0.1712041 -0.45622984 0.24364525 -0.09206557
-0.111441 0.1467075 0.19992292 0.092228845 -0.1819713 0.025355674 0.20459814 -0.0071767815
0.32890597 -0.34416807 -0.029638197 -0.088770725 -0.32086933 -0.56310064 0.07547283 -0.29797447
-0.3087235 -0.054821357 -0.3737007 -0.07659066 -0.43927765 1.117693 0.24581571 -0.015720407
-0.38232428 -0.29723412 -0.14050202 -0.4845611 0.18292435 -0.010012879 -0.062394466 0.5376449
-0.30829212 -1.1026984 -0.44125196 -0.07786988 -0.20310469 0.02427236 -0.26216868 -0.12615801
0.070636295 0.39472878 0.088645585 -0.051028714 -0.4564477 0.25278896 -0.30108285 0.8599746
-0.2660173 0.41889015 0.47230354 -0.08716428 0.39456052 -0.5654381 0.13048653 0.13419993
0.12093775 -0.20185408 -0.27516347 0.26099586 0.25082076 1.201919 0.6327763 0.0727103
-0.45713028 0.00011492823 0.06204528 -0.63912725 0.74324507 0.011156499 0.26958522 -0.06577281
0.3272284 0.13067769 -0.2305707 0.08850024 -0.28350928 0.123678975 -0.20856722 0.11793176
-0.09406526 0.70664686 0.079120025 0.64637464 -0.17763007 -0.074923895 -0.26837283 -0.04182924
-0.9092227 -0.37186167 0.202208 0.0060444265 -0.20297004 0.31771377 -0.36404192 -0.62904996
00000000: 2d42 4bbe 88a2 983e b636 e93d 5861 5e3d
00000010: 5ef5 f4be 0fc2 78be bddb 113f 83f2 8b3d
00000020: 6b02 9a3d 37de 143f 33e6 76bc d02b 233e
00000030: 46cd 393e 1510 b73e 1d46 0bbe d1d4 3fbd
00000040: 749a cebe e47a a6be 2d7d 793e 7f62 7a3e
00000050: ec12 213f 37ad d2bc 11db b8be 9d01 3ebe
00000060: 277f 623e de94 9cbe e7e7 823e b82e 94bd
00000070: 2150 2f3e f596 e9be 247e 793e e08c bcbd
00000080: 2e3b e4bd 7e3a 163e 98b8 4c3e 7ae2 bc3d
00000090: af56 3abe b4b6 cf3c 2d82 513e 352b ebbb
000000a0: 5d66 a83e cc36 b0be cecb f2bc 6dcd b5bd
000000b0: fc48 a4be 5d27 10bf 8091 9a3d 1c90 98be
000000c0: 0211 9ebe 5c8c 60bd b355 bfbe 90db 9cbd
000000d0: 00e9 e0be 9010 8f3f 1db7 7b3e 15c8 80bc
000000e0: 02c0 c3be 122f 98be c3df 0fbe 6418 f8be
000000f0: 8550 3b3e 0f0d 24bc 5791 7fbd 19a3 093f
00000100: 77d8 9dbe 3925 8dbf c7eb e1be 3e7a 9fbd
00000110: adfa 4fbe d4d6 c63c f93a 86be 912f 01be
00000120: c3a9 903d e419 ca3e d18b b53d 7c03 51bd
00000130: 83b3 e9be 8e6d 813e 8827 9abe 4c27 5c3f
00000140: 6b33 88be c578 d63e c5d1 f13e 3083 b2bd
00000150: d603 ca3e 8dc0 10bf 439e 053e b56b 093e
00000160: 36ae f73d d6b2 4ebe 3ae2 8cbe 40a1 853e
00000170: 946b 803e 7bd8 993f a1fd 213f 23e9 943d
00000180: fb0c eabe a005 f138 3123 7e3d d89d 23bf
00000190: 4f45 3e3f c0c9 363c 1307 8a3e e5b3 86bd
000001a0: 7b8a a73e 5fd0 053e ba1a 6cbe 9d3f b53d
000001b0: 2128 91be 674b fd3d a592 55be 3586 f13d
000001c0: 49a5 c0bd cfe6 343f ae09 a23d cf78 253f
000001d0: a8e4 35be b371 99bd 2a68 89be 2355 2bbd
000001e0: d2c2 68bf a764 bebe 9d0f 4f3e 5310 c63b
000001f0: 61d7 4fbe 61ab a23e b463 babe 6b09 21bf

running_mean f4 [128]
-0.025045875 2.0038128 0.6203128 -0.08690351 0.5149034 -3.6080709 0.1842776 -1.9852289
1.2229671 0.34683108 0.58819854 1.029799 0.55724794 -0.540264 0.06823272 -1.5025823
0.39067575 -0.5802955 1.3341497 0.11445391 -0.35515717 -0.5733989 -0.25420886 0.37809026
-0.31000522 -0.19525802 2.8439345 -0.47928393 -0.43856576 0.049514446 -0.45182014 -1.1106257
1.9264859 -0.097213425 0.21171704 0.2806656 -2.0376735 0.37792698 -0.8623962 -0.0569673
0.76262856 -0.23721242 -0.5887838 -0.175079 2.2129457 -0.20778772 0.46808565 -0.034119025
-3.5193248 1.2653619 -0.23610929 0.2997173 1.5636042 0.44292888 0.29987544 -0.29941624
-1.6980882 0.593894 0.588431 0.5624407 -0.85948396 0.013868963 -0.25728798 0.108859606
0.7620848 -0.7376485 0.3520953 -0.10093269 -0.94871664 0.89975595 -0.08267403 0.28094712
-0.5471067 -0.25050342 -0.47416157 0.16237901 0.25791466 1.9225368 -0.15774317 0.9320747
-0.93471044 -0.35587993 -0.24035597 1.801428 -0.04143535 -0.35019526 -0.14358611 0.0765412
-1.4420394 0.004238406 0.29748872 0.44912046 0.04968332 -0.29450938 -0.8866773 0.8141359
-0.46355307 0.05053118 -1.2287438 -0.11973895 0.72493297 -0.32415542 -0.08691335 -0.2645061
4.089962 -0.4345041 -0.023255771 0.32282272 0.10980644 0.605941 -0.8144444 0.7325885
-0.6161773 0.08370373 -0.10151533 -0.24502286 0.20113686 -1.8106183 -0.9683433 0.5044883
0.94151664 1.5598643 -0.083798975 -0.38482353 0.1517809 0.34586015 0.42545915 0.34160975
00000000: 022d cdbc 783e 0040 d2cc 1e3f 78fa b1bd
00000010: b6d0 033f a2ea 66c0 44b3 3c3e fb1b febf
00000020: 308a 9c3f d893 b13e 2e94 163f 74d0 833f
00000030: cda7 0e3f be4e 0abf 99bd 8b3d 9e54 c0bf
00000040: a706 c83e 3f8e 14bf 6bc5 aa3f d066 ea3d
00000050: 29d7 b5be 45ca 12bf aa27 82be 0c95 c13e
00000060: 01b9 9ebe b8f1 47be 0603 3640 b464 f5be
00000070: b18b e0be a9cf 4a3d f854 e7be fc28 8ebf
00000080: 1797 f63f d517 c7bd 5acc 583e 67b3 8f3e
00000090: 3e69 02c0 a57f c13e ffc5 5cbf 8b56 69bd
000000a0: a03b 433f d0e7 72be 89ba 16bf e947 33be
000000b0: e7a0 0d40 4ec6 54be eca8 ef3e 64c0 0bbd
000000c0: 9e3c 61c0 61f7 a13f a2c6 71be 8c74 993e
000000d0: 2f24 c83f 93c7 e23e 4689 993e 164d 99be
000000e0: f45a d9bf 7009 183f 6aa3 163f 1dfc 0f3f
000000f0: 2407 5cbf a63a 633c 40bb 83be c9f1 de3d
00000100: fd17 433f 88d6 3cbf d645 b43e ccb5 cebd
00000110: 18df 72bf 6856 663f 0051 a9bd 4dd8 8f3e
00000120: 2f0f 0cbf fc41 80be 4ec5 f2be af46 263e
00000130: 640d 843e b015 f63f 6d87 21be 739c 6e3f
00000140: 2f49 6fbf e535 b6be e01f 76be 3195 e63f
00000150: 1db8 29bd cb4c b3be 3d08 13be a2c1 9c3d
00000160: bf94 b8bf 54e2 8a3b 7150 983e 1ef3 e53e
00000170: bd80 4b3d efc9 96be 49fd 62bf 366b 503f
00000180: d456 edbe c8f9 4e3d 7a47 9dbf b239 f5bd
00000190: 3595 393f b3f7 a5be a0ff b1bd 586d 87be
000001a0: f8e0 8240 5277 debe e382 bebc 0549 a53e
000001b0: 33e2 e03d f31e 1b3f 6e7f 50bf ec8a 3b3f
000001c0: ccbd 1dbf dc6c ab3d 45e7 cfbd 46e7 7abe
000001d0: d2f6 4d3e 57c2 e7bf 59e5 77bf 2526 013f
000001e0: 3c07 713f a2a9 c73f cc9e abbd 9707 c5be
000001f0: 746c 1b3e 9514 b13e c8d5 d93e 79e7 ae3e

running_var f4 [128]
0.0150957275 1.1877546 0.25876492 0.030811932 0.015312459 1.0030377 0.016302055 1.240781
0.53228974 0.0050106253 0.007187571 0.021027964 0.10080656 0.08312826 0.19549517 0.15355328
0.26291928 0.018102834 0.52109545 0.0118462965 0.0048911287 0.010608127 0.018011827 0.06923994
0.19542499 0.1130842 1.290879 0.004978946 0.084935926 0.016877186 0.0053085904 0.0024600504
0.060701888 0.003017358 0.013022913 0.0018459677 0.79884475 0.07888274 0.012448232 0.004806656
0.0032780326 0.010183072 0.013716617 0.087516084 1.5237864 0.0038461096 0.007962236 0.004008241
1.4195797 0.1006198 0.0043042 0.020997195 0.0051558493 0.005068482 0.01910532 0.03117234
0.3762834 0.02850832 0.008992144 0.0036932472 0.028311936 0.15546845 0.05525245 0.0023140192
0.016970782 0.0027660562 0.017808823 0.012193382 0.0121732885 0.026287721 0.009079677 0.03942037
0.0042907526 0.05132841 0.004508646 0.0058775013 0.0040220907 0.9982159 0.005480987 0.015260213
0.0067380397 0.019638449 0.0038639868 0.6306579 0.0034856026 0.00497823 0.025082916 0.009536664
0.6530664 0.13665873 0.00843936 0.0068243975 0.13100988 0.0041385344 0.37481084 0.00645852
0.025877593 0.23835231 0.0048756213 0.005839438 0.0068580867 0.012244334 0.076796666 0.0018242528
1.5272963 0.004861531 0.003808077 0.037343204 0.0034098139 0.045199957 0.0076175327 0.15653442
0.0035887482 0.010498568 0.06523098 0.011624807 0.06973849 0.8362456 0.008145587 0.01744989
0.0023641186 0.09486566 0.006254738 0.010341601 0.012806439 0.003196587 0.0469244 0.012878748
00000000: 1254 773c 5808 983f d67c 843e 4e69 fc3c
00000010: 1ce1 7a3c 8a63 803f e38b 853c e9d1 9e3f
00000020: 2444 083f 2c30 a43b b785 eb3b d642 ac3c
00000030: ab73 ce3d 263f aa3d e32f 483e 123d 1d3e
00000040: 5b9d 863e 654c 943c 8366 053f f816 423c
00000050: c345 a03b b6cd 2d3c 8a8d 933c abcd 8d3d
00000060: 7d1d 483e b098 e73d 863b a53f 6d26 a33b
00000070: e3f2 ad3d 0642 8a3c aff3 ad3b cc38 213b
00000080: 8ba2 783d debe 453b 0e5e 553c 66f4 f13a
00000090: 1781 4c3f 468d a13d abf3 4b3c 2781 9d3b
000000a0: 43d4 563b e6d6 263c a9bb 603c a23b b33d
000000b0: 6f0b c33f 030f 7c3b 0a74 023c 9057 833b
000000c0: cab4 b53f c111 ce3d 3f0a 8d3b 4f02 ac3c
000000d0: 66f2 a83b 8215 a63b c382 9c3c 235d ff3c
000000e0: 38a8 c03e 488a e93c c953 133c 680a 723b
000000f0: 6fee e73c 1f33 1f3e 6550 623d cda6 173b
00000100: 4f06 8b3c b946 353b cfe3 913c c0c6 473c
00000110: 7972 473c 5959 d73c edc2 143c 4177 213d
00000120: 7199 8c3b bd3d 523d 44bd 933b 0e98 c03b
00000130: becb 833b 148b 7f3f da99 b33b f905 7a3c
00000140: c6ca dc3b d0e0 a03c f13a 7d3b cc72 213f
00000150: b56e 643b 6c20 a33b b07a cd3c ab3f 1c3c
00000160: 5c2f 273f 44f0 0b3e 3e45 0a3c 329f df3b
00000170: 7427 063e 8b9c 873b 35e7 bf3e fea1 d33b
00000180: 3ffd d33c a112 743e adc3 9f3b c258 bf3b
00000190: cdb9 e03b 769c 483c 9247 9d3d c41b ef3a
000001a0: 727e c33f 7a4d 9f3b ee90 793b 30f5 183d
000001b0: 2f77 5f3b 9723 393d 7f9c f93b 8f4a 203e
000001c0: 3431 6b3b 3002 2c3c d297 853d f975 3e3c
000001d0: 0ed3 8e3d 3114 563f 1175 053c 12f3 8e3c
000001e0: 54ef 1a3b ed48 c23d 8cf4 cc3b d26f 293c
000001f0: 19d2 513c d57d 513b cd33 403d 6201 533c

weight f4 [64, 128]
0.23496655 -0.2337974 -0.3412083 0.58866376 0.0743038 -0.4807264 0.2734762 0.1529176
-0.3015987 0.49483597 -0.5114655 -0.101046346 -0.9444133 1.0327126 0.41844788 0.02215435
0.036825106 0.032861695 0.13645238 0.05600674 -0.807037 -0.07368245 0.8344084 0.008483548
-0.30668518 -0.30660084 -0.08018913 0.41234344 0.0011130696 0.37668148 0.5533575 0.55836755
-0.16018099 -0.21171016 -0.79607266 -0.041117463 0.009369224 -0.051039852 -0.1270139 0.25596026
0.7014567 -0.26287237 -0.114740185 0.4962554 -0.44447163 0.055361245 -1.3295999 -0.16950099
-0.6093648 -0.21769549 0.49289072 0.69702554 0.14573826 0.4089782 0.15796062 -0.19081727
-0.24589425 -0.49712673 0.17446086 1.1204426 -0.14392453 -0.085211195 0.28113264 -0.4810797
-0.83981544 -0.26280618 -0.051085 -0.46701112 -0.77880883 0.18677409 -0.3893585 0.97951007
1.1833375 -0.13272722 -0.3678729 -0.09820547 -0.28083345 -0.14980482 0.44899365 -0.52519435
-0.48311937 -0.566078 0.043927494 0.17307062 0.6071596 -0.64661825 -0.4333533 0.3405551
0.12448368 -0.18618646 -0.55148095 1.322652 0.2008512 0.75410503 -0.036081113 0.63857716
-0.072300084 -0.027937919 0.78320426 -0.10760024 0.45731476 -0.7399552 0.24955061 0.25194243
-0.15927023 -0.8151919 -0.06108332 0.084431216 -0.9478044 0.23240255 -0.25132698 0.16917881
-0.84999484 0.55409217 -0.30125406 0.7452207 -0.31558913 -0.16322216 0.27906632 -0.14808087
0.31735557 0.04861962 -0.47368887 -0.5491314 -0.1573341 -0.35199925 0.12148161 -0.4305724
-0.95887005 0.05414582 -0.42243788 -0.3642863 -0.2718892 0.026599191 0.23415524 0.316486
-0.18800136 -0.39063913 -0.015446305 -0.011818144 0.4930686 0.43543747 -0.13441876 0.014799166
-0.12555528 0.1589958 -0.10743653 0.07704451 0.48901224 -0.543521 0.018087523 0.4855931
-0.12767693 0.85648954 0.16682962 0.8480253 0.06698379 0.7811944 -0.4835416 -0.7931129
1.2181224 0.25256002 -0.71788436 -0.91171867 0.26284337 -0.3782261 -0.57709587 -0.3745914
-0.08144572 1.39623 -0.3568101 0.062004723 -0.014342213 -1.232078 0.21520407 0.6775156
0.054534875 -0.088845655 -0.4528994 0.056584273 -0.34448215 0.79817057 -0.041773975 0.22179656
0.1989786 -0.5077282 -0.6538268 -0.038723193 -0.73814774 -0.009880482 -0.16992064 -0.3693759
-0.5411188 0.54397446 0.8639042 0.4057809 0.16573362 -0.11337918 0.2858582 0.774017
-0.1402776 -1.2316775 -0.5674002 -0.33431944 0.2438927 -0.2071514 -0.8937726 -0.22503188
0.47083235 0.7207182 0.7186106 0.03126223 -0.52460843 0.46430197 -1.0407602 0.3440026
0.014005209 0.008926557 -0.57271403 -0.21282332 -0.58841974 -0.67591393 -0.15487511 -0.6984325
0.5647703 0.034515034 -0.5503249 -0.16895324 0.10709474 -0.80646306 -0.052185014 -0.2901081
-0.2315039 0.26952967 -0.0505337 -0.36018124 1.0569338 0.69847476 -0.016688814 -0.07668869
-0.049024243 -0.96186686 0.3262994 0.9688924 0.8470573 0.302579 -0.17766374 -0.72079635
0.38897568 -0.14916089 -0.1281885 -0.5912533 -0.083387285 0.08773108 0.5457102 0.060959205
00000000: 129b 703e 9668 6fbe dbb2 aebe abb2 163f
00000010: 972c 983d c521 f6be 1305 8c3e 6e96 1c3e
00000020: 256b 9abe 245b fd3e 67ef 02bf 63f1 cebd
00000030: 12c5 71bf ed2f 843f cd3e d63e 0a7d b53c
00000040: ecd5 163d fc99 063d 2cba 0b3e 5367 653d
00000050: fa99 4ebf d3e6 96bd ca9b 553f 94fe 0a3c
00000060: d705 9dbe c9fa 9cbe 333a a4bd ae1e d33e
00000070: 6be4 913a 65dc c03e d6a8 0d3f 2df1 0e3f
00000080: 7c06 24be 8cca 58be 6bcb 4bbf c96a 28bd
00000090: 6081 193c 2a0f 51bd ef0f 02be 390d 833e
000000a0: ab92 333f 3597 86be e7fc eabd 3015 fe3e
000000b0: c991 e3be 79c2 623d 5430 aabf ab91 2dbe
000000c0: 55ff 1bbf 91eb 5ebe 2c5c fc3e 4470 323f
000000d0: 693c 153e 9765 d13e 6ec0 213e 9a65 43be
000000e0: b4cb 7bbe 6587 febe dea5 323e aa6a 8f3f
000000f0: f460 13be 3583 aebd 9ef0 8f3e 1450 f6be
00000100: 25fe 56bf 888e 86be 813e 51bd 151c efbe
00000110: 0460 47bf b541 3f3e ff59 c7be 2cc1 7a3f
00000120: 9a77 973f a5e9 07be d659 bcbe f31f c9bd
00000130: 67c9 8fbe 6f66 19be 7fe2 e53e 2373 06bf
00000140: 6c5b f7be 7dea 10bf 51ed 333d 6d39 313e
00000150: d06e 1b3f c688 25bf 7ce0 ddbe 3d5d ae3e
00000160: 4df1 fe3d aaa7 3ebe db2d 0dbf a94c a93f
00000170: f0ab 4d3e 070d 413f cac9 13bd cb79 233f
00000180: 1112 94bd 10de e4bc 1380 483f 845d dcbd
00000190: 2925 ea3e b46d 3dbf 328a 7f3e 99fe 803e
000001a0: bc17 23be 6bb0 50bf 8132 7abd 46ea ac3d
000001b0: 4fa3 72bf effa 6d3e eead 80be 363d 2d3e
000001c0: 4399 59bf fcd8 0d3f f93d 9abe c9c6 3e3f
000001d0: e694 a1be b623 27be c8e1 8e3e 83a2 17be
000001e0: 6e7c a23e 5e25 473d 5987 f2be e093 0cbf
000001f0: 311c 21be 3f39 b4be 5acb f83d fc73 dcbe
00000200: 8278 75bf 02c8 5d3d c749 d8be bc83 babe
00000210: 1035 8bbe 8ce6 d93c 64c6 6f3e 740a a23e
00000220: 6e83 40be da01 c8be 8012 7dbc e3a0 41bc
00000230: 7d73 fc3e a9f1 de3e 12a5 09be 3378 723c
00000240: 9091 00be cccf 223e af07 dcbd 83c9 9d3d
00000250: d05f fa3e 3124 0bbf 492c 943c a99f f83e
00000260: bebd 02be e642 5b3f 62d5 2a3e 3018 593f
00000270: cc2e 893d 5bfc 473f c492 f7be 7209 4bbf
00000280: 6feb 9b3f 8c4f 813e 45c7 37bf 6566 69bf
00000290: 6893 863e daa6 c1be 8ebc 13bf 72ca bfbe
000002a0: 03cd a6bd aab7 b23f d0af b6be aaf8 7d3d
000002b0: 9afb 6abc bbb4 9dbf 755e 5c3e aa71 2d3f
000002c0: f65f 5f3d b6f4 b5bd 6ee2 e7be e9c4 673d
000002d0: f75f b0be e854 4c3f 301b 2bbd a31e 633e
000002e0: 0cc1 4b3e 7afa 01bf 3161 27bf 369c 1ebd
000002f0: 40f7 3cbf bfe1 21bc adff 2dbe d71e bdbe
00000300: c386 0abf e941 0b3f d328 5d3f 84c2 cf3e
00000310: 13b6 293e 5833 e8bd 025c 923e fa25 463f
00000320: eea4 0fbe 9ca7 9dbf 2441 11bf eb2b abbe
00000330: 02bf 793e 7f1f 54be 48ce 64bf c26e 66be
00000340: f010 f13e fd80 383f ddf6 373f d30c 003d
00000350: bd4c 06bf fdb8 ed3e a137 85bf 1c21 b03e
00000360: 1b76 653c b240 123c 639d 12bf 5bee 59be
00000370: ada2 16bf b208 2dbf 9597 1ebe 79cc 32bf
00000380: c994 103f a35f 0d3d 18e2 0cbf 1402 2dbe
00000390: 7d54 db3d 5d74 4ebf f4bf 55bd 0d89 94be
000003a0: 5c0f 6dbe cbff 893e 6dfc 4ebd ad69 b8be
000003b0: 9b49 873f 3ecf 323f fbb6 88bc f60e 9dbd
000003c0: a5cd 48bd e83c 76bf b710 a73e 5509 783f
000003d0: bfd8 583f a2eb 9a3e 7ced 35be 1c86 38bf
000003e0: d227 c73e a2bd 18be d943 03be 605c 17bf
000003f0: f4c6 aabd 5aac b33d aab3 0b3f 5cb0 793d

bias f4 [64]
-0.0107584335 -0.06588897 -0.16986059 -0.129284 0.066025585 0.08395862 0.045496862 -0.021998553
0.1713114 -0.1728679 0.0913698 -0.03340049 -0.08614668 0.10650134 0.041181017 -0.02146253
0.04109276 -0.051433604 0.12541799 -0.07961232 -0.017514251 0.07415103 -0.20163444 0.009737268
-0.00395936 -0.057313427 0.010856316 0.123199664 -0.058541737 -0.0500597 -0.0889452 0.049821824
0.12886815 0.10225981 0.07538643 0.14949706 -0.026269423 0.06204817 0.033559974 -0.18872309
0.12670606 -0.0118445465 -0.13836719 -0.2021162 -0.06335935 -0.20161834 0.0024498028 -0.057764668
-0.15070248 -0.10726551 0.14041983 0.21363924 0.08033532 -0.023706883 0.06822496 -0.057323277
0.020975346 -0.32272115 -0.011827437 -0.018614938 -0.096218176 0.031446863 0.043603778 0.031504355
00000000: 2444 30bc ccf0 86bd efef 2dbe 0663 04be
00000010: 6c38 873d 7ff2 ab3d eb5a 3a3d 4f36 b4bc
00000020: 416c 2f3e 4804 31be 1720 bb3d f4ce 08bd
00000030: ac6d b0bd 601d da3d 6dad 283d 30d2 afbc
00000040: e250 283d 0bac 52bd 936d 003e c90b a3bd
00000050: 0c7a 8fbc 7fdc 973d 4279 4ebe 1089 1f3c
00000060: 85bd 81bb 7cc1 6abd b1de 313c 1b50 fc3d
00000070: 76c9 6fbd 660b 4dbd e728 b6bd f811 4c3d
00000080: 03f6 033e 976d d13d 3364 9a3d c215 193e
00000090: f932 d7bc 3926 7e3d 2f76 093d a040 41be
000000a0: 3cbf 013e a10f 42bc 21b0 0dbe 8df7 4ebe
000000b0: 8cc2 81bd 0a75 4ebe df8c 203b a59a 6cbd
000000c0: c051 1abe 05ae dbbd 37ca 0f3e 3fc4 5a3e
000000d0: d886 a43d f034 c2bc 87b9 8b3d d0cb 6abd
000000e0: 7dd4 ab3c b53b a5be dec7 41bc 5b7e 98bc
000000f0: 090e c5bd 6dce 003d e099 323d b60a 013d

weight f4 [64]
3.5797179 7.022932 2.8143907 6.755758 4.7129526 2.4704995 3.0860808 5.2908316
6.1081285 2.897055 5.1756034 1.7348208 2.0908935 4.4144783 1.5306106 4.079178
2.3669493 8.00013 2.0517375 3.0844996 1.8235135 2.9918337 1.9087648 6.5863123
1.9076165 3.0102415 3.1408486 1.7583098 5.263925 2.3357325 1.9037795 2.0567932
7.2742124 2.7396567 1.7457194 1.6771073 1.7852787 5.0301557 1.6363354 3.8475552
1.7140248 2.708296 4.6967015 1.7415582 4.8070107 2.5420954 7.54564 1.9205335
2.970806 3.2521842 6.6581793 5.781938 1.7662759 2.229478 2.3736107 2.312004
8.353708 1.5505378 2.0929518 1.9788548 7.1090975 5.3464103 4.357801 1.5717077
00000000: 191a 6540 dcbb e040 fa1e 3440 2b2f d840
00000010: 82d0 9640 aa1c 1e40 5982 4540 7e4e a940
00000020: ca75 c340 5969 3940 8b9e a540 9c0e de3f
00000030: 33d1 0540 6843 8d40 0ceb c33f a088 8240
00000040: 197c 1740 8800 0041 ab4f 0340 7168 4540
00000050: e468 e93f 347a 3f40 6852 f43f 12c3 d240
00000060: c72c f43f cca7 4040 aa03 4940 4c10 e13f
00000070: 1372 a840 a47c 1540 0caf f33f 80a2 0340
00000080: 59c6 e840 8956 2f40 bc73 df3f 74ab d63f
00000090: 0384 e43f 09f7 a040 7073 d13f 583e 7640
000000a0: 2a65 db3f b954 2d40 614b 9640 61eb de3f
000000b0: 08d3 9940 b1b1 2240 e275 f140 0bd4 f53f
000000c0: af21 3e40 c923 5040 ce0f d540 a305 b940
000000d0: 5415 e23f c4af 0e40 3de9 1740 e0f7 1340
000000e0: caa8 0541 0678 c63f ecf2 0540 1d4b fd3f
000000f0: ba7d e340 cb15 ab40 1b73 8b40 b82d c93f

bias f4 [64]
-0.58650154 0.5194022 -1.3049911 0.012335759 0.8325197 -1.828681 -1.4255024 -0.9560214
-0.7028634 -1.8469763 1.4531354 1.9131135 -1.8686056 -1.1966231 1.7453986 -0.9972179
-2.0765688 -0.07364982 0.9291452 -0.702826 1.1394359 -1.3515831 -2.0215216 0.26660484
-0.948762 1.2254288 -0.912293 1.8869406 0.32397315 1.545103 0.9924862 1.0979714
0.6892671 -1.3929634 1.9945462 -1.8414752 -1.9183013 -0.7795432 1.5748038 0.8657763
-1.8684759 1.2502722 -0.40976107 -1.9692875 0.7784973 1.6325047 -0.35857219 -2.0741925
0.98521066 -1.4053301 0.107054666 0.97553986 1.0120044 -1.4113566 0.97106105 -1.1559266
-0.40335003 1.4849683 -1.6557086 -2.03313 0.3726382 0.7145505 1.4273199 -1.8192812
00000000: f724 16bf 8bf7 043f f309 a7bf ec1b 4a3c
00000010: 0320 553f 3812 eabf dd76 b6bf d2bd 74bf
00000020: dbee 33bf b869 ecbf 5700 ba3f e7e0 f43f
00000030: 782e efbf f22a 99bf 3969 df3f ac49 7fbf
00000040: 81e6 04c0 b8d5 96bd 76dc 6d3f 68ec 33bf
00000050: 09d9 913f ad00 adbf 9c60 01c0 6e80 883e
00000060: 11e2 72bf dada 9c3f 098c 69bf 4587 f13f
00000070: cfdf a53e efc5 c53f 9313 7e3f 548a 8c3f
00000080: cf73 303f a04c b2bf 4a4d ff3f 76b5 ebbf
00000090: e68a f5bf 2590 47bf 2c93 c93f 84a3 5d3f
000000a0: 382a efbf eb08 a03f 34cc d1be 9d11 fcbf
000000b0: 994b 473f eaf5 d03f c696 b7be 92bf 04c0
000000c0: c436 7c3f dbe1 b3bf 7a3f db3d fbbc 793f
000000d0: 5c89 813f 55a7 b4bf 7597 783f 67f5 93bf
000000e0: e583 cebe 7113 be3f 42ee d3bf cd1e 02c0
000000f0: 6fca be3e c8ec 363f 6bb2 b63f 35de e8bf

running_mean f4 [64]
3.226504 -3.3079236 -0.8552506 -4.71759 1.7351904 0.20011376 1.1334739 -2.5107007
-1.9568809 1.3522018 2.7686017 -0.06621387 -0.21799362 -3.009666 0.36493415 -3.4663324
0.24040204 2.8318791 -1.0342875 -2.4261816 -2.4627333 2.5239387 -0.78794026 -2.673726
0.9801444 -3.1320474 -0.9813097 0.762527 -0.55855244 -4.5710015 -2.1153264 -0.20591068
-3.5895271 0.3139853 0.6357432 1.5492988 -1.6599591 3.0324533 1.1860092 2.4541626
-0.4749106 1.0627143 -2.3889413 -2.2571495 2.8683074 -2.0861945 2.5946674 -1.6925869
-3.2402158 -0.9659703 1.3242152 3.6521404 0.6310267 1.0849932 -0.68813455 1.2006075
2.7527535 0.8033482 -1.8888763 -1.321397 1.279216 2.8935266 1.6286218 0.827012
00000000: 0b7f 4e40 05b5 53c0 b4f1 5abf 7ff6 96c0
00000010: b81a de3f 9fea 4c3e ac15 913f 52af 20c0
00000020: 137b fabf f314 ad3f c530 3140 239b 87bd
00000030: b839 5fbe 5e9e 40c0 a6d8 ba3e 64d8 5dc0
00000040: f42b 763e 823d 3540 8863 84bf 8f46 1bc0
00000050: 6c9d 1dc0 3688 2140 74b6 49bf 541e 2bc0
00000060: beea 7a3f 7773 48c0 1d37 7bbf f834 433f
00000070: 4bfd 0ebf a545 92c0 8261 07c0 40da 52be
00000080: d0ba 65c0 aec2 a03e 11c0 223f 6c4f c63f
00000090: 8a79 d4bf b713 4240 26cf 973f 0011 1d40
000000a0: 7b27 f3be 0607 883f 6ae4 18c0 2375 10c0
000000b0: 5992 3740 3684 05c0 080f 2640 b0a6 d8bf
000000c0: b25f 4fc0 d449 77bf e27f a93f abbc 6940
000000d0: f78a 213f 0fe1 8a3f 9629 30bf 82ad 993f
000000e0: 1d2d 3040 3aa8 4d3f b3c6 f1bf 8923 a9bf
000000f0: 5abd a33f 8a2f 3940 ae76 d03f 0fb7 533f

running_var f4 [64]
565.74927 443.1852 179.74556 350.01456 311.89325 259.20944 365.31018 411.18683
220.30215 439.6883 477.6416 187.71982 125.562965 393.02173 236.69232 437.90848
142.6738 522.7165 567.64844 285.56778 405.9202 341.20886 345.88486 527.28503
599.06244 391.08826 323.4396 264.59485 286.4947 429.5774 441.74554 737.4733
446.71393 164.76492 207.25473 271.2428 215.41678 191.93544 143.4225 402.11865
32.537918 248.09357 412.93088 263.64505 363.18762 438.749 474.69617 260.4681
475.40222 395.18256 266.71985 384.46957 285.61954 177.82147 767.4961 464.9318
497.45892 130.96338 265.84973 223.40251 256.05185 380.48505 473.38403 271.8132
00000000: f46f 0d44 b597 dd43 ddbe 3343 dd01 af43
00000010: 56f2 9b43 cf9a 8143 b4a7 b643 ea97 cd43
00000020: 5a4d 5c43 1ad8 db43 20d2 ee43 46b8 3b43
00000030: 3d20 fb42 c882 c443 3cb1 6c43 49f4 da43
00000040: 7eac 0e43 dbad 0244 80e9 0d44 adc8 8e43
00000050: c9f5 ca43 bc9a aa43 43f1 ac43 3ed2 0344
00000060: ffc3 1544 4c8b c343 45b8 a143 244c 8443
00000070: 523f 8f43 e8c9 d643 6edf dc43 4b5e 3844
00000080: 625b df43 d2c3 2443 3641 4f43 149f 8743
00000090: b26a 5743 79ef 3f43 296c 0f43 300f c943
000000a0: d426 0242 f417 7843 2777 ce43 91d2 8343
000000b0: 0498 b543 df5f db43 1c59 ed43 eb3b 8243
000000c0: 7cb3 ed43 5e97 c543 245c 8543 1b3c c043
000000d0: 4dcf 8e43 4cd2 3143 c0df 3f44 4577 e843
000000e0: beba f843 a0f6 0243 c4ec 8443 0b67 5f43
000000f0: a306 8043 163e be43 28b1 ec43 17e8 8743

weight f4 [36, 64]
-0.61976373 1.5419167 0.98720425 0.86065376 -0.54739606 -0.6293875 -0.40695974 0.8580577
0.674631 -1.1141865 -0.3779259 -0.3365046 -0.22231862 -0.19570646 -0.6200042 0.41738054
-0.17995757 -0.909182 0.4239895 0.5905799 0.57922286 -0.17645128 0.15785562 0.91397285
-0.52809507 0.9571884 1.0806752 -0.3143148 0.70796233 1.2715671 1.0414062 0.28772557
1.9279884 1.6599003 -0.5259886 0.7230194 0.35465875 -0.27803937 -0.0670253 0.20867094
-0.47102773 -1.2724761 0.96750236 0.29300046 -0.6683392 1.2639676 -1.5960511 0.4302164
0.6678919 -0.019536588 -0.5278658 -0.60576636 0.47448212 -0.583067 0.9979675 -1.2336228
-1.473674 -0.012748173 -0.3593758 0.35540318 -0.5952439 -0.4682841 0.2531722 0.5793605
-0.30995956 0.77584076 0.5650666 1.0933733 -0.95176566 1.6053985 -0.9904053 1.2458824
1.1924695 -1.5585736 -1.3206315 0.67112803 -0.68679863 1.2385454 0.48446298 0.7030777
-0.53456277 -0.9036467 -0.30842182 0.93405664 0.97561353 -1.1017234 -0.6374179 0.60595834
0.8037326 0.6031915 0.58400935 0.73603827 0.47113004 0.825538 0.50835717 -0.76577854
0.8399554 0.919526 0.4765669 -0.98237675 -0.60862494 -0.8950407 0.4120407 -1.0352626
-0.9366911 -0.5833512 1.534232 -0.6707571 -0.6275017 0.62496114 -0.8134565 -0.88248545
0.5506755 0.9756632 -0.73221636 -1.2043834 -0.8237507 -0.6757036 -0.40581104 -0.5517117
-0.9003038 0.5243121 0.89436716 -0.8087175 -0.8363687 -1.5826814 -1.0878981 -0.6992423
-0.90241855 -1.0957774 0.03595316 1.0278039 0.6524922 0.6190889 -0.30130586 -0.6813392
1.15913 -0.7452475 -1.5092262 -1.1362326 0.9472375 1.2755178 -1.2500441 -0.48910367
1.2231114 1.2767204 -1.5846335 -0.36183244 0.38319537 -0.36409688 0.94336444 -1.4851294
0.9722443 0.35097244 -0.441717 -1.0347584 1.3091339 0.5314595 0.11781087 -1.5274117
-1.2496957 -0.35066774 -0.96613604 0.6173082 1.4571096 -1.142865 -1.8200871 -1.1936051
-0.004278974 0.5021989 -0.23155364 1.2818574 0.4524282 0.7135778 1.254447 0.56870025
0.539761 -0.025315888 -0.96669996 -1.0567186 -0.8482446 1.0428125 -1.4368681 -0.36629945
1.064546 -1.4401081 1.1906857 1.0417076 -1.0068365 0.44683132 -1.1620349 0.7164008
-1.0969495 -1.2680057 -0.22202873 0.81455266 0.83398145 0.6621398 -0.40440083 -0.7570707
0.9125454 -0.900725 -1.3524665 -1.37335 0.82522124 1.2111369 -1.3375098 -0.73525053
1.1352633 0.9490576 -1.5929465 -0.05628637 0.44413027 -0.42949772 0.9330057 -1.1476309
1.1253787 0.7126594 -0.19871932 -1.1778117 1.1344136 -0.07125903 0.026020149 -1.3617917
-1.1896633 -0.3812402 -1.1412312 0.6462619 1.5382183 -0.9241262 -1.5858816 -0.86905545
-0.06886337 0.21434551 -0.5441638 1.5333117 0.51960963 0.49511588 1.3478341 0.61284214
0.9856458 -0.024238493 -1.0358045 -1.2825207 -0.8224935 1.3379927 -0.9228637 -0.8704352
1.0674609 -1.5792558 1.2220474 0.7124849 -1.061081 0.80259717 -1.1636856 1.1437963
00000000: d6a8 1ebf 875d c53f 6bb9 7c3f ce53 5c3f
00000010: 2622 0cbf 8a1f 21bf 075d d0be aba9 5b3f
00000020: 9eb4 2c3f aa9d 8ebf 817f c1be 554a acbe
00000030: 7ea7 63be 4667 48be 98b8 1ebf e7b2 d53e
00000040: cc46 38be 27c0 68bf 2715 d93e 3f30 173f
00000050: f347 143f a5af 34be e7a4 213e 20fa 693f
00000060: 3d31 07bf 4d0a 753f 9153 8a3f dfed a0be
00000070: 053d 353f b6c2 a23f cc4c 853f c450 933e
00000080: 53c8 f63f 9d77 d43f 30a7 06bf cd17 393f
00000090: d595 b53e 2d5b 8ebe 8f44 89bd d6ad 553e
000000a0: 8c2a f1be 7fe0 a2bf 3cae 773f 2804 963e
000000b0: 4718 2bbf b1c9 a13f 674b ccbf 5345 dc3e
000000c0: f7fa 2a3f 320b a0bc 3722 07bf 8113 1bbf
000000d0: 52ef f23e e143 15bf cc7a 7f3f 5ae7 9dbf
000000e0: 5aa1 bcbf b7dd 50bc 1b00 b8be 68f7 b53e
000000f0: e761 18bf efc2 efbe c99f 813e f850 143f
00000100: 05b3 9ebe 809d 463f 34a8 103f a8f3 8b3f
00000110: eaa6 73bf b37d cd3f 348b 7dbf 1379 9f3f
00000120: d7a2 983f 577f c7bf 740a a9bf 0ccf 2b3f
00000130: 09d2 2fbf a888 9e3f 880b f83e e6fc 333f
00000140: 1bd9 08bf 6455 67bf 77e9 9dbe 561e 6f3f
00000150: cfc1 793f 4605 8dbf d22d 23bf 1620 1b3f
00000160: 6bc1 4d3f c26a 1a3f a381 153f 016d 3c3f
00000170: f537 f13e 7556 533f b223 023f 100a 44bf
00000180: 5107 573f 0e66 6b3f 9400 f43e 0b7d 7bbf
00000190: d8ce 1bbf 6321 65bf 00f7 d23e 7c83 84bf
000001a0: fdca 6fbf 8156 15bf b761 c43f bdb6 2bbf
000001b0: f4a3 20bf 74fd 1f3f af3e 50bf 91ea 61bf
000001c0: 12f9 0c3f 10c5 793f 8872 3bbf 3c29 9abf
000001d0: 53e1 52bf e9fa 2cbf 77c6 cfbe fa3c 0dbf
000001e0: 4f7a 66bf 5139 063f 3ff5 643f 1c08 4fbf
000001f0: 421c 56bf 4e95 cabf 3f40 8bbf 8b01 33bf
00000200: e704 67bf 6f42 8cbf 9f43 133d 148f 833f
00000210: bb09 273f 9c7c 1e3f c344 9abe 3f6c 2ebf
00000220: 5f5e 943f 8ac8 3ebf 532e c1bf 1270 91bf
00000230: 287e 723f 2b44 a33f 7201 a0bf cc6b fabe
00000240: ea8e 9c3f 936b a33f 45d5 cabf 1a42 b9be
00000250: 2f32 c43e e86a babe 5580 713f b818 bebf
00000260: 01e5 783f a9b2 b33e bb28 e2be f772 84bf
00000270: b391 a73f bb0d 083f d346 f13d 3a82 c3bf
00000280: 07f6 9fbf b98a b3be b154 77bf e907 1e3f
00000290: 9182 ba3f 6649 92bf 9df8 e8bf 0dc8 98bf
000002a0: a336 8cbb 1b90 003f 661c 6dbe e713 a43f
000002b0: aba4 e73e 09ad 363f b891 a03f 5796 113f
000002c0: c72d 0a3f 4463 cfbc a679 77bf 8e42 87bf
000002d0: 8f26 59bf e17a 853f 4beb b7bf 9a8b bbbe
000002e0: 0b43 883f 7655 b8bf 6468 983f ad56 853f
000002f0: 05e0 80bf 13c7 e43e 8fbd 94bf 0b66 373f
00000300: d768 8cbf 034e a2bf 805b 63be 8686 503f
00000310: cf7f 553f fe81 293f a00d cfbe 63cf 41bf
00000320: 939c 693f ea95 66bf 9f1d adbf efc9 afbf
00000330: b341 533f 8906 9b3f 8533 abbf 6139 3cbf
00000340: 4f50 913f 70f5 723f ace5 cbbf 898c 66bd
00000350: 0b65 e33e 20e7 dbbe 76d9 6e3f 92e5 92bf
00000360: 690c 903f d970 363f 147d 4bbe 89c2 96bf
00000370: 7734 913f 41f0 91bd 3528 d53c 314f aebf
00000380: e346 98bf ea31 c3be dd13 92bf 6b71 253f
00000390: 56e4 c43f 8993 6cbf 2bfe cabf 6b7a 5ebf
000003a0: 3d08 8dbd 647d 5b3e 524e 0bbf 8f43 c43f
000003b0: 2305 053f d47f fd3e d485 ac3f 39e3 1c3f
000003c0: 4853 7c3f ce8f c6bc 3e95 84bf a329 a4bf
000003d0: ef8e 52bf 5843 ab3f cc40 6cbf d7d4 5ebf
000003e0: 8fa2 883f 0e25 cabf 0d6c 9c3f 6965 363f
000003f0: 81d1 87bf 0277 4d3f a6f3 94bf eb67 923f

bias f4 [36]
-2.4562638 -0.57481325 -0.6512952 -0.39116257 -0.112914324 -2.6074831 2.5988781 0.38687345
-1.2354935 -0.57765347 0.3934345 -0.6960553 0.024112573 -1.8652737 0.078701094 0.20330793
0.502057 -0.67463124 0.24507187 -0.35161337 -0.866588 1.1428845 0.94344425 2.6657298
-2.1040816 0.09926938 0.11246623 1.1853683 -1.2596669 0.76871055 -2.3638558 -1.4096565
-0.89446557 1.6865443 -1.1347191 2.3039353
00000000: 6d33 1dc0 f626 13bf 48bb 26bf 7646 c8be
00000010: a03f e7bd 01e1 26c0 0554 2640 4714 c63e
00000020: a724 9ebf 19e1 13bf 3f70 c93e ae30 32bf
00000030: bb87 c53c 4ac1 eebf 0a2e a13d f42f 503e
00000040: cf86 003f a2b4 2cbf 1ff4 7a3e ab06 b4be
00000050: b6d8 5dbf 0a4a 923f 9085 713f 519b 2a40
00000060: 46a9 06c0 bf4d cb3d b254 e63d 26ba 973f
00000070: c43c a1bf 37ca 443f 6a49 17c0 a06f b4bf
00000080: b2fb 64bf afe0 d73f 7a3e 91bf ad73 1340
